model.pt (torch, 26676 bytes, 6 tensors)

weight f4 [64, 21]
0.058735352 0.0491143 0.027226433 -0.14804879 0.19641235 -0.14550288 0.09586997 -0.012441369
-0.02561965 -0.03883336 0.09250858 0.030961387 -0.14441752 0.19301313 -0.038484883 0.011034579
-0.026664227 0.20551118 -0.17388971 -0.11315024 -0.01259001 -0.16341569 0.09832638 -0.11555295
0.33605418 0.3041666 -0.09982834 0.08658434 0.02229853 0.13256708 0.22802043 0.079125285
0.047620077 -0.00685781 0.0023907102 0.128221 -0.03311616 -0.15396313 0.21295118 0.13073808
-0.18711944 0.24661191 0.12592542 -0.18218823 -0.07701114 -0.13052213 -0.06131932 0.14323959
0.030401062 0.15136486 0.117040835 -0.2074981 0.020659601 -0.050537832 -0.08220116 -0.19711852
-0.25008413 0.065401964 0.1314351 -0.23213975 -0.022167927 0.019611124 -0.04854682 0.32375893
-0.098095916 0.16263935 0.00653671 0.12119256 -0.019803585 0.09587527 -0.091326505 0.2366513
0.10216334 0.11140415 -0.14959307 -0.034149658 0.023267074 -0.0055303257 -0.07238902 -0.08513547
-0.31549892 0.062027168 -0.17402755 0.24560545 0.38325915 0.026257368 0.06428255 -0.38579246
-0.07073313 0.14959823 -0.06377929 -0.071234055 0.1539771 -0.055037327 0.014203293 0.07313419
0.07216487 -0.15606016 0.031086404 0.022435747 0.037530143 -0.12440773 -0.0964379 -0.05903968
0.22712694 -0.048257537 -0.022576252 0.18723394 0.26445484 0.0824732 0.105400436 -0.045597244
0.13627982 -0.051359493 -0.207014 -0.11369086 0.193266 0.115710236 0.020357158 0.066245414
-0.0019876785 0.120223254 -0.11259775 0.20372072 0.16633205 0.17925769 -0.027615901 0.13220316
-0.053680707 -0.02734538 -0.048868254 0.22041777 -0.0351933 0.16444823 0.14753103 0.23073575
0.07945086 0.18824092 0.13785785 0.16112155 -0.058587093 0.23829216 0.0014725863 0.13081045
0.18741326 0.03975067 -0.15728761 -0.07075252 0.21273267 -0.081816025 -0.17816907 -0.20673016
-0.16157302 -0.13140973 -0.19758557 -0.10157408 -0.10466757 0.17420325 -0.17570984 0.1279531
0.07762102 0.092438206 -0.046711348 0.15617731 -0.18698552 0.1425698 -0.017334163 -0.10475544
0.16689998 0.0113855805 -0.0032339848 -0.006082058 -0.11904562 0.0725044 -0.080128156 -0.054093722
-0.17257243 -0.086770706 0.21262361 -0.16495377 0.13068938 -0.13353494 -0.10761673 -0.044072136
0.040758032 -0.117355675 0.21033348 0.035922546 -0.18441567 0.09540297 0.16223896 0.12489417
-0.01126646 0.2400639 0.12318908 -0.084387735 0.16475494 0.17535305 0.08899375 0.23983027
0.24482001 0.012160503 -0.14117062 0.1573053 -0.048685674 0.22622782 -0.006170602 0.0992807
-0.09450916 0.10067912 0.16420953 -0.15880157 0.20782667 -0.04344192 0.16245137 0.22008099
-0.07360219 0.25017768 0.067926876 0.19588634 0.0054561654 -0.11435257 0.004601963 0.031791117
0.17170407 -0.059121914 -0.15515043 0.097028315 0.13749848 -0.18830493 0.0043681418 -0.18288185
-0.144612 0.05399266 -0.19086345 -0.08767189 0.20661679 0.16012284 -0.038353775 -0.15134221
-0.044791907 -0.025621185 0.017296078 0.16841759 0.082909584 -0.10046606 0.07485307 -0.09628188
0.15647686 0.10074352 -0.12594914 0.054932375 -0.09889222 -0.10313664 0.17985591 0.04725821
00000000: 7b94 703d 142c 493d f809 df3c 1a9a 17be
00000010: 5220 493e b5fe 14be 7a57 c43d e2d6 4bbc
00000020: 4de0 d1bc bb0f 1fbd 2375 bd3d bca2 fd3c
00000030: 30e2 13be 3ca5 453e 53a2 1dbd 61ca 343c
00000040: f06e dabc 8671 523e 2510 32be 50bb e7bd
00000050: 5446 4ebc 7156 27be 575f c93d 06a7 ecbd
00000060: 4b0f ac3e b9bb 9b3e cd72 ccbd 2153 b13d
00000070: 68ab b63c aabf 073e 307e 693e 700c a23d
00000080: 450d 433d 7bb7 e0bb 76ad 1c3b 5e4c 033e
00000090: d0a4 07bd 83a8 1dbe e00f 5a3e 34e0 053e
000000a0: 3d9c 3fbe d587 7c3e 98f2 003e 8d8f 3abe
000000b0: 04b8 9dbd 98a7 05be f829 7bbd 66ad 123e
000000c0: a60b f93c 64ff 1a3e 1bb3 ef3d 627a 54be
000000d0: 533e a93c c200 4fbd 1559 a8bd 70d9 49be
000000e0: 070b 80be 77f1 853d ec96 063e 0bb6 6dbe
000000f0: 8399 b5bc 82a7 a03c 08d9 46bd bbc3 a53e
00000100: 83e6 c8bd ee8a 263e e631 d63b ce33 f83d
00000110: 213b a2bc 415a c43d 6409 bbbd b854 723e
00000120: 033b d13d dc27 e43d ed2e 19be 83e0 0bbd
00000130: 979a be3c bc37 b5bb b240 94bd 815b aebd
00000140: 1389 a1be 3310 7e3d 4734 32be ff7f 7b3e
00000150: 8b3a c43e b119 d73c 92a6 833d 9786 c5be
00000160: 88dc 90bd 4730 193e b79e 82bd 29e3 91bd
00000170: 2cac 1d3e d26e 61bd eeb4 683c 61c7 953d
00000180: 2dcb 933d 3cce 1fbe eaa8 fe3c 2ccb b73c
00000190: 35b9 193d 7bc9 febd 3c81 c5bd 97d3 71bd
000001a0: f793 683e b2a9 45bd d5f1 b8bc 41ba 3f3e
000001b0: a066 873e b6e7 a83d 2fdc d73d 2dc4 3abd
000001c0: f08c 0b3e 555e 52bd 7afb 53be c1d6 e8bd
000001d0: 86e7 453e 7df9 ec3d 0ec4 a63c adab 873d
000001e0: b643 02bb 9c37 f63d a699 e6bd 2a9c 503e
000001f0: f352 2a3e 548f 373e be3a e2bc 4460 073e
00000200: 4de0 5bbd 6b03 e0bc 142a 48bd 32b5 613e
00000210: da26 10bd 1e65 283e 6012 173e fe45 6c3e
00000220: 22b7 a23d 3ac2 403e 9c2a 0d3e 0cfd 243e
00000230: 05f9 6fbd dc02 743e cc03 c13a 2df3 053e
00000240: 43e9 3f3e 99d1 223d 0110 21be b2e6 90bd
00000250: 98d6 593e 298f a7bd f471 36be 12b1 53be
00000260: 6673 25be 4690 06be df53 4abe 1206 d0bd
00000270: f35b d6bd 5662 323e 48ed 33be 2306 033e
00000280: c5f7 9e3d 3e50 bd3d 6654 3fbd f2ec 1f3e
00000290: 2279 3fbe d1fd 113e 6000 8ebc 058a d6bd
000002a0: d4e7 2a3e 968a 3a3c 43f1 53bb 004c c7bb
000002b0: 31ce f3bd 307d 943d 3b1a a4bd 6191 5dbd
000002c0: d4b6 30be d7b4 b1bd 01ba 593e a4e9 28be
000002d0: 70d3 053e 62bd 08be 2966 dcbd fc84 34bd
000002e0: e5f1 263d 2c58 f0bd a961 573e 8523 133d
000002f0: 76d7 3cbe a262 c33d f821 263e 84c8 ff3d
00000300: f596 38bc 50d3 753e 8e4a fc3d 7ad3 acbd
00000310: 85b5 283e c08f 333e 5b42 b63d 1196 753e
00000320: 19b2 7a3e d93c 473c 088f 10be a414 213e
00000330: a16a 47bd 44a8 673e c332 cabb ae53 cb3d
00000340: 058e c1bd db30 ce3d 8b26 283e e19c 22be
00000350: 84d0 543e 28f0 31bd a759 263e e95c 613e
00000360: bfbc 96bd 4a17 803e 3f1d 8b3d 6e96 483e
00000370: a2c9 b23b ae31 eabd 10cc 963b 6737 023d
00000380: 31d3 2f3e d229 72bd c1df 1ebe c8b6 c63d
00000390: 67cc 0c3e 02d3 40be a122 8f3b 6145 3bbe
000003a0: 2b15 14be 6827 5d3d b571 43be 528d b3bd
000003b0: 5a93 533e 3ef7 233e d918 1dbd 74f9 1abe
000003c0: b877 37bd 85e3 d1bc 81b0 8d3c a975 2c3e
000003d0: 80cc a93d 26c1 cdbd 914c 993d 6f2f c5bd
000003e0: 783b 203e 9e52 ce3d d0f8 00be c500 613d
000003f0: 0188 cabd 4d39 d3bd 262c 383e d391 413d

bias f4 [64]
-0.19376028 -0.12212565 -0.14541158 -0.19305767 0.24998286 -0.095873244 -0.11505804 -0.21005079
-0.08512675 0.069655836 0.18019575 -0.19880256 -0.06426306 0.10581759 0.06222959 -0.064070314
0.02430928 -0.11770077 -7.361239e-05 -0.048575312 -0.06861876 -0.061288666 -0.086178504 -0.041158866
-0.20895411 -0.14108223 0.19912665 0.13403606 0.2625424 0.026261276 0.1195723 0.05007625
-0.081754416 -0.10421255 0.1805793 0.11557713 -0.061415195 -0.024382208 0.03545922 -0.10137393
-0.12777922 -0.016033813 0.21660757 0.099873856 0.13908622 -0.011810511 0.18348175 -0.18669815
-0.052172683 0.024400938 0.19169319 0.17436898 -0.18771231 0.08471478 0.0642696 -0.05236405
0.24102804 0.115595564 0.17493941 -0.0047090077 0.20052536 0.19506255 0.10058859 -0.17420343
00000000: 1869 46be 031d fabd c6e6 14be e9b0 45be
00000010: 82fb 7f3e 3159 c4bd 8da3 ebbd 8e17 57be
00000020: ef56 aebd b8a7 8e3d 3c85 383e e692 4bbe
00000030: 5a9c 83bd e5b6 d83d 74e4 7e3d 4c37 83bd
00000040: 4124 c73c 1a0d f1bd 5a60 9ab8 e8f6 46bd
00000050: fe87 8cbd d309 7bbd 5b7e b0bd 3396 28bd
00000060: 11f8 55be dc77 10be dbe7 4b3e c040 093e
00000070: f56b 863e e321 d73c 52e2 f43d c11c 4d3d
00000080: dc6e a7bd 646d d5bd c8e9 383e b4b3 ec3d
00000090: 808e 7bbd 32bd c7bc b03d 113d 239d cfbd
000000a0: 8ed8 02be 5859 83bc 60ce 5d3e aa8a cc3d
000000b0: 9e6c 0e3e e080 41bc a4e2 3b3e cd2d 3fbe
000000c0: 06b3 55bd 7ae4 c73c 384b 443e c88d 323e
000000d0: a837 40be f17e ad3d c89f 833d b07b 56bd
000000e0: 0ed0 763e 5ebd ec3d 5123 333e 054e 9abb
000000f0: 8556 4d3e 7abe 473e 6401 ce3d 6262 32be

weight f4 [64, 64]
-0.0023676753 -0.07428288 0.007897351 0.09056245 0.19366051 -0.11608733 0.13980733 -0.04803762
0.044301286 0.15007181 0.046129175 0.083663166 0.1313596 0.060951557 0.06598337 -0.004881081
0.089572795 -0.0007183361 0.031127764 0.12701596 -0.07804632 0.050994366 -0.034686342 0.10046555
0.06323168 -0.09061667 0.12212532 -0.07955935 0.08352616 -0.10079515 0.16175623 0.005716523
0.04435082 0.06592035 0.06107992 -0.07209296 0.060521543 0.04704522 -0.031402152 -0.09764683
-0.1050493 0.06369394 0.16410951 0.018849773 -0.0002949438 0.04753787 0.1328277 -0.06897363
0.099388584 -0.040594228 -0.01883527 -0.03051433 0.10531129 0.13809787 0.018479332 -0.03501463
-0.030048039 0.14092937 -0.017067492 -0.045384824 -0.0042774174 0.15049003 0.14568928 0.10257849
-0.060872704 0.08824965 0.0071608275 0.030670568 0.10972665 -0.102970436 0.084583536 -0.044338703
-0.10657327 0.011741728 0.110131085 -0.019680068 0.120514095 0.04744932 0.10732873 -0.049882665
0.037811995 0.08519004 0.055864558 0.09944655 -0.09300782 -0.11780165 0.06330377 -0.054319084
-0.09222297 0.072600976 -0.029752284 0.033455834 0.0688647 0.103338 0.008040935 0.086055025
0.022993818 -0.02063641 -0.036992908 -0.0642795 -0.10539013 0.04084076 0.08091745 -0.0876731
0.096012205 -0.028857872 -0.022562906 -0.11979967 -0.11542459 0.055534437 0.009439588 0.02614811
-0.08112751 0.08107385 -0.043217346 -0.12279265 0.042986974 0.008609623 -0.011501208 -0.030253202
-0.11344616 0.063969836 -0.07677637 0.036006868 -0.11741841 -0.056526482 -0.10558267 0.019513547
-0.0016365498 0.013567492 -0.0375178 0.12033102 0.093114465 -0.054120347 -0.071685866 0.017984524
-0.04595463 0.03727539 -0.06547868 0.10464153 -0.079762265 -0.046421126 -0.017078593 -0.09599286
-0.0021601617 0.0807478 -0.013938278 -0.042010576 -0.04794325 0.08411208 0.05832094 0.115216464
-0.028638527 0.1104673 -0.016798869 -0.06934337 -0.008414447 -0.0006993115 -0.12319994 -0.00033058226
0.078529984 -0.09859024 0.08388947 -0.022230387 -0.013689801 0.035244614 0.108468145 0.04453993
-0.06533487 -0.0761525 0.061029434 0.012938455 -0.12032893 0.09435029 0.034110636 -0.09375709
0.052265227 0.124024585 -0.118594185 -0.092093736 0.09611559 -0.030998796 0.09079614 -0.055288166
0.0056075603 -0.019968629 -0.073213145 0.020337135 0.054747 -0.098288536 -0.018957451 -0.016402617
-0.058067963 -0.09309167 0.068427935 -0.10275401 0.020655453 -0.06061104 -0.10892993 -0.06958768
0.06077382 -0.10052754 -0.117308125 -0.10996066 -0.07081762 -0.109745935 -0.06508504 0.03158696
0.02305764 0.05178447 -0.065585524 0.030172452 -0.016173914 -0.123526335 -0.0065778494 -0.020855173
0.07867937 0.0326152 0.07403779 0.01992485 -0.07476422 0.031096265 0.048600048 -0.045268044
0.02005513 -0.045894936 0.08236371 0.05491227 -0.007922903 -0.08187221 -0.0050056577 -0.104178
0.024252385 0.10311258 0.019019619 0.058453158 -0.025742248 -0.105455875 0.015501112 -0.045972496
-0.042338684 -0.11535394 -0.021964684 0.0088673085 0.06649771 0.036538795 0.07239291 -0.119516045
-0.11204073 -0.040354013 0.08559643 -0.078677535 0.0843271 0.09155062 -0.10832895 -0.047371447
00000000: 002b 1bbb 9f21 98bd e463 013c ce78 b93d
00000010: f14e 463e 32bf edbd a729 0f3e 18c3 44bd
00000020: 4475 353d 6dac 193e f2f1 3c3d 9857 ab3d
00000030: 2283 063e 57a8 793d 4a22 873d 7af1 9fbb
00000040: f171 b73d b84e 3cba a7ff fe3c 7910 023e
00000050: c0d6 9fbd 78df 503d 4413 0ebd e2c0 cd3d
00000060: 9c7f 813d 3c95 b9bd d71c fa3d 03f0 a2bd
00000070: c30f ab3d b06d cebd 6da3 253e ac51 bb3b
00000080: 35a9 353d 4001 873d f02e 7a3d 79a5 93bd
00000090: 70e5 773d 7db2 403d 8b9f 00bd 10fb c7bd
000000a0: 1624 d7bd f871 823d 530c 283e d76a 9a3c
000000b0: b0a2 9ab9 12b7 423d fc03 083e 0c42 8dbd
000000c0: 3e8c cb3d 2246 26bd 6d4c 9abc 30f9 f9bc
000000d0: 72ad d73d 8769 0d3e f861 973c 806b 0fbd
000000e0: 4e27 f6bc ca4f 103e 20d1 8bbc 70e5 39bd
000000f0: 9429 8cbb 0f1a 1a3e 922f 153e ac14 d23d
00000100: a855 79bd 3cbc b43d 60a5 ea3b d840 fb3c
00000110: 5eb8 e03d 2ae2 d2bd 223a ad3d 809c 35bd
00000120: 1643 dabd 6060 403c 688c e13d 1838 a1bc
00000130: 18d0 f63d 385a 423d 2acf db3d c451 4cbd
00000140: c0e0 1a3d 1e78 ae3d 3cd2 643d a2aa cb3d
00000150: e27a bebd fe41 f1bd 68a5 813d b07d 5ebd
00000160: 66df bcbd d2af 943d 10bb f3bc fc08 093d
00000170: f008 8d3d e0a2 d33d 20be 033c 9e3d b03d
00000180: 885d bc3c b00d a9bc e085 17bd f8a4 83bd
00000190: c8d6 d7bd a448 273d 0cb8 a53d f48d b3bd
000001a0: 0ca2 c43d 5867 ecbc d8d5 b8bc 8859 f5bd
000001b0: ba63 ecbd 1478 633d 80a8 1a3c 9034 d63c
000001c0: 2e26 a6bd 0c0a a63d ac04 31bd b67a fbbd
000001d0: 1c13 303d 600f 0d3c 906f 3cbc 90d5 f7bc
000001e0: 7656 e8bd 9e02 833d ee3c 9dbd f07b 133d
000001f0: 1079 f0bd 5088 67bd ba3b d8bd e0da 9f3c
00000200: 8081 d6ba 304a 5e3c 44ac 19bd 1c70 f63d
00000210: ccb2 be3d 4cad 5dbd 0ad0 92bd 4854 933c
00000220: ec3a 3cbd 14ae 183d b019 86bd 4c4e d63d
00000230: 665a a3bd 1424 3ebd 68e8 8bbc e897 c4bd
00000240: 8091 0dbb 1a5f a53d 605d 64bc 4813 2cbd
00000250: 2460 44bd f442 ac3d f0e1 6e3d 9cf6 eb3d
00000260: 589b eabc ae3c e23d c89d 89bc e603 8ebd
00000270: c0dc 09bc 0052 37ba 4050 fcbd 0052 adb9
00000280: 54d4 a03d aee9 c9bd 3ece ab3d 801c b6bc
00000290: 304b 60bc a85c 103d 8c24 de3d 806f 363d
000002a0: 4ace 85bd d8f5 9bbd 00fa 793d d0fb 533c
000002b0: 046f f6bd ba3a c13d 98b7 0b3d b803 c0bd
000002c0: 1014 563d 9a00 fe3d 82e1 f2bd a49b bcbd
000002d0: 40d8 c43d 30f1 fdbc 54f3 b93d d875 62bd
000002e0: a0bf b73b 4095 a3bc c6f0 95bd 109a a63c
000002f0: 643e 603d 804b c9bd a84c 9bbc c85e 86bc
00000300: acd8 6dbd d8a6 bebd f223 8c3d b270 d2bd
00000310: a035 a93c 4843 78bd a816 dfbd fc83 8ebd
00000320: f8ed 783d 62e1 cdbd 3e3f f0bd 0e33 e1bd
00000330: d408 91bd 7ac2 e0bd 4e4b 85bd 5461 013d
00000340: 60e3 bc3c f41b 543d b451 86bd 382c f73c
00000350: 287f 84bc 60fb fcbd 008b d7bb 78d8 aabc
00000360: a622 a13d 8497 053d 20a1 973d 7039 a33c
00000370: fc1d 99bd 98bd fe3c d810 473d fc6a 39bd
00000380: a84a a43c 54fc 3bbd 4eae a83d b0eb 603d
00000390: 10cf 01bc 9eac a7bd 8006 a4bb 465b d5bd
000003a0: f0ac c63c b02c d33d 08cf 9b3c 946c 6f3d
000003b0: 68e1 d2bc 40f9 d7bd 60f8 7d3c a84d 3cbd
000003c0: 546b 2dbd b03e ecbd 48ef b3bc 3048 113c
000003d0: f42f 883d b4a9 153d bc42 943d d4c4 f4bd
000003e0: 9c75 e5bd 404a 25bd 2e4d af3d b021 a1bd
000003f0: b0b3 ac3d e47e bb3d 92db ddbd 9008 42bd

bias f4 [64]
0.07135014 -0.07884997 0.002218172 -0.06386219 -0.016659878 0.0150864925 -0.0001963675 -0.030977784
0.10774195 0.05505426 -0.08418594 0.1386763 0.014894738 0.14174014 0.06789646 0.08647508
-0.06815559 0.11780578 -0.044867784 0.11936638 0.036494255 0.13515718 -0.015933799 0.14287542
-0.054738536 0.13580345 0.02383454 -0.049595535 -0.023879252 0.020472407 -0.0003031678 -0.0037894838
0.04809816 -0.029583452 0.14062424 0.14255655 0.043028295 0.104123354 -0.05062559 0.064982995
0.14806147 -0.06989982 -0.037667852 0.052084453 0.08687962 0.05968664 0.022287598 0.0017502059
0.09244019 -0.09079881 -0.05631806 0.08165736 0.13845728 -0.010927377 -0.121718034 -0.055798844
-0.055179708 -0.014851019 0.025562905 0.07903522 0.067855604 -0.03596016 0.089309596 -0.011960365
00000000: 0620 923d 187c a1bd c05e 113b 2eca 82bd
00000010: 4c7a 88bc 562d 773c 00e8 4db9 1fc5 fdbc
00000020: d0a7 dc3d 9380 613d ae69 acbd 2901 0e3e
00000030: 0f09 743c 5424 113e 4d0d 8b3d d919 b13d
00000040: 2895 8bbd 2844 f13d 48c7 37bd 5c76 f43d
00000050: 007b 153d a566 0a3e 9987 82bc ef4d 123e
00000060: 8435 60bd 0f10 0b3e a740 c33c b024 4bbd
00000070: 6c9e c3bc c0b5 a73c 7ef2 9eb9 fd58 78bb
00000080: 9402 453d ff58 f2bc cdff 0f3e 58fa 113e
00000090: 703e 303d a03e d53d c75c 4fbd ce15 853d
000000a0: 6d9d 173e a327 8fbd 9b49 1abd 8256 553d
000000b0: f1ed b13d fa79 743d 7b94 b63c 2a67 e53a
000000c0: 4851 bd3d baf4 b9bd c4ad 66bd f93b a73d
000000d0: bfc7 0d3e be08 33bc 4e47 f9bd 548d 64bd
000000e0: 1e04 62bd b051 73bc 4c69 d13c 38dd a13d
000000f0: e1f7 8a3d f64a 13bd f3e7 b63d 68f5 43bc

weight f4 [2, 64]
0.10722288 0.032574534 0.016109675 0.070900634 0.18935505 0.08686457 -0.10798359 -0.0868818
0.092392765 0.054156 -0.022245497 0.101908244 -0.0070639057 0.082569405 0.1359046 -0.033495024
-0.08005817 0.058263794 -0.073014945 0.02275657 0.07750437 0.05436934 0.12982477 0.12959823
-0.024993598 0.11861506 0.11063163 0.0472845 -0.110829175 0.26807785 0.14757514 0.4943588
0.03725959 -0.080616176 0.06249012 0.079917304 0.100755356 0.016107129 -0.04598683 0.098551035
0.11194075 0.07282688 0.1152079 0.15238464 -0.03428754 -0.06170263 0.16716091 0.13197379
0.09040725 -0.114273325 -0.091255754 -0.08007496 0.07620765 0.08832072 -0.024151847 -0.02078611
0.13964611 -0.03739051 -0.027068414 0.11598453 -0.073142976 0.16631986 -0.001531902 0.033363324
-0.10847382 -0.038564026 -0.005016625 0.089341536 0.13648933 -0.025122358 0.10214853 -0.07539118
0.0004772999 -0.038270958 0.099065885 0.020706227 0.06462425 0.06103678 0.032561623 -0.022258341
0.05357687 -0.025928091 -0.082201704 0.019735593 0.029562505 -0.011465092 0.1246446 -0.024307907
0.07383032 0.12182468 -0.04739104 -0.08132689 -0.030446418 0.011998837 0.07617162 0.07402967
0.06548521 0.00039868258 0.012663388 0.031913005 0.10085024 -0.067002654 -0.0043056556 0.10266572
0.0954342 -0.14940836 -0.061683055 -0.068047315 -0.07627449 -0.10393554 0.042944297 0.06824795
-0.008922779 0.10640544 -0.05681479 0.013042371 -0.10960237 -0.068054 0.10212844 0.048767302
-0.03332036 0.0053100507 -0.03442006 -0.08830678 -0.105777934 -0.13209473 0.047043078 0.09143234
00000000: ab97 db3d e06c 053d 70f8 833c 5a34 913d
00000010: 4ae6 413e 0de6 b13d 8026 ddbd 16ef b1bd
00000020: 6b38 bd3d afd2 5d3d 303c b6bc 45b5 d03d
00000030: 5678 e7bb 261a a93d 932a 0b3e 1432 09bd
00000040: 8af5 a3bd 04a6 6e3d dc88 95bd fc6b ba3c
00000050: 9cba 9e3d 63b2 5e3d c9f0 043e 66b5 043e
00000060: 60bf ccbc 74ec f23d d692 e23d 64ad 413d
00000070: 68fa e2bd 8041 893e f01d 173e 991c fd3e
00000080: 839d 183d 181a a5bd a4f5 7f3d afab a33d
00000090: d358 ce3d 19f3 833c b05c 3cbd 20d5 c93d
000000a0: 3141 e53d 4226 953d 1ff2 eb3d b80a 1c3e
000000b0: 1771 0cbd e6bb 7cbd 3b2c 2b3e 2324 073e
000000c0: 7027 b93d 2208 eabd 4ce4 babd 57fe a3bd
000000d0: c212 9c3d 7ee1 b43d 18da c5bc a247 aabc
000000e0: 64ff 0e3e cb26 19bd 94be ddbc 4c89 ed3d
000000f0: fccb 95bd c14f 2a3e 1aca c8ba fba7 083d
00000100: 8627 debd 50f5 1dbd 8062 a4bb b2f8 b63d
00000110: dcc3 0b3e 67cd cdbc 4033 d13d b166 9abd
00000120: 1c3e fa39 02c2 1cbd 0ee3 ca3d 1ba0 a93c
00000130: b859 843d b401 7a3d 565f 053d 2057 b6bc
00000140: 6c73 5b3d 2667 d4bc 5e59 a8bd 8aac a13c
00000150: 112d f23c 15d8 3bbc ab45 ff3d 6021 c7bc
00000160: 5a34 973d 387f f93d 1b1d 42bd b68e a6bd
00000170: c46a f9bc c596 443c deff 9b3d de9c 973d
00000180: 1c1d 863d 4506 d139 197a 4f3c 36b7 023d
00000190: 928a ce3d b038 89bd 7516 8dbb 6842 d23d
000001a0: 0173 c33d 81fe 18be 5fa7 7cbd 645c 8bbd
000001b0: cd35 9cbd 28dc d4bd 5ce6 2f3d 95c5 8b3d
000001c0: d930 12bc 18eb d93d a0b6 68bd abaf 553c
000001d0: 3577 e0bd e55f 8bbd b728 d13d 39c0 473d
000001e0: ee7a 08bd efff ad3b 0dfc 0cbd 2fda b4bd
000001f0: 1aa2 d8bd d743 07be 3eb0 403d e140 bb3d

bias f4 [2]
-0.011880657 -0.03890132
00000000: 16a7 42bc fe56 1fbd
