model.pt (torch, 57140 bytes, 6 tensors)

weight f4 [82, 75]
00000000: 52bc 16bd 5b40 0dbd b08e e4bd 9bd7 ddbc
00000010: a1a8 13bd 5ce8 21be 36ba 143d 6586 5cbd
00000020: a901 9dbd a8eb a5bd ba50 c9bd 0bc5 b7bd
00000030: c233 b4bd 4fa9 1d3d a40d 07be 796d 233d
00000040: 4ebe 02be be93 5cbd d733 6bbd 682a 4abd
00000050: e0da 213d bed4 9dbc 5883 83bb 64f0 0ebe
00000060: 153f d0bd d36a 00bd 3e13 cc3c b166 03be
00000070: 8c67 583d aa2b 69bd e309 083d bd94 fe3c
00000080: 478d 08be edb3 80bd c7b1 e6bd 963a d9bd
00000090: 06fb 61bd ec7e b03d 8f1a 0dbd 424b ef3c
000000a0: ec1f d3bc 1f14 9f3d 5ed8 563d 11b3 febd
000000b0: 3a75 11bd 5492 a3bd 18bf 1dbd 57f6 88bd
000000c0: 78e1 143d e548 683d cf68 a2bd fa3e 78bd
000000d0: 16c3 083c 9a8b ab3c 5b51 d1bc a69a 313d
000000e0: afa5 013e afc5 62bd 2fce c93d d6f7 8ebd
000000f0: 9241 53bc df44 e73c 0d3c b7bc a4ec ef3d
00000100: e56f 9abc eab7 1a3d 25b7 34bd dcc3 b23d
00000110: ce30 bb3c 3806 e13d b6f3 bc3d 66b8 4abc
00000120: 84cc a63d 5ce2 073e e658 193e 1632 293e
00000130: 27b7 26c0 5ebf e63d 0297 b03d c959 6d3d
00000140: 56f7 d93a cce8 12be 8e89 d6bd 4bef 88bd
00000150: 928c be3c 3555 05bc eb6f 32be 8e94 1ebe
00000160: 8338 05be 74b4 84bf a439 fbbb c544 c6bd
00000170: 3730 edba 7df0 bd3b 5748 ffbd 428a 03bd
00000180: 0074 8bbe 2311 febd 3dbe a23d 81a4 203b
00000190: 341a 023e 618d 25c0 03a2 2b3d 742c 01bd
000001a0: efb9 a43c 8409 d93d 7bc9 8c3c 5d50 a73d
000001b0: 23d6 5dbd 49a9 523d fdf5 cfbd b92b dcbd
000001c0: d97b 76bd 32c1 7c3d e80e 71bf 2bd8 a03b
000001d0: cb5a 80bd 2ff5 a63d 757a bf3d 9df6 9239
000001e0: f2f0 c53d 7795 94bd e53a 083e 29ad 3c3d
000001f0: 63ac bd3d f588 de3b b806 21c0 9d25 093e
00000200: 9b24 d23d 08f8 2a3e ad11 a13d d8f9 a93c
00000210: 10b4 fe3c d868 69bc 12e9 b63c eb19 a83c
00000220: 7131 49bd 8fbd 2abc 753d 003e d725 64bf
00000230: 943f 503e a401 8e3d 4cb3 403d 4b1e 343e
00000240: 87ad ba3d 6116 153e 7e04 46be 5f05 243e
00000250: 828b 833e a88b 8a3e 6865 92bd f1d2 cdbd
00000260: 01d3 df3d 8044 d53d 391b 893d e993 86bd
00000270: 2fb0 45bd 4560 2bbd 2858 d83d c06f d0bb
00000280: 0f3d adbd 3e73 b5bd f2a3 273d 55d9 903c
00000290: b0b8 8b3d d7ee b7bb 128f bc3c ff1d d3bd
000002a0: 2009 3c3d 9deb 43bd 4d6d bd3d 5057 c73d
000002b0: 7370 ad3d e111 e73d 3a7b 68bc 12a9 8c3d
000002c0: 8227 9aba 76df 573d 35d5 a5bd bc91 9c3c
000002d0: ce58 f7bc 4c95 5dbc e7bb 8a3d cba1 463d
000002e0: 38c1 623d d552 76bc 6374 68bd d189 10bd
000002f0: 0831 d7bd 7f5a 97bd feb8 ce3d 5dd6 913d
00000300: 8e14 0bbd 1857 7ebd 8e35 40bd 26cd 923d
00000310: cc7d 3bbd 448b 183d a40d ea3c 7de7 e0bd
00000320: 20f7 e63d ad91 dabd 451b d8bd 1d70 dbbd
00000330: 0985 dcbd b796 033c 5192 fe3c 88e2 6dbd
00000340: 5d1a 3b3b 1612 9bbc 89ac 3fbc 8c4c b43d
00000350: deaf c5bb 6750 d4bd d1fb 5fbd 2b40 9abd
00000360: f823 aabc f887 dabb 5c76 4c3d 4972 34bd
00000370: 60ab 413b 31bd a7bd 9f93 813d e6b3 c93a
00000380: 30ae c43d 5aeb aebd a691 aa3d 30aa 203d
00000390: 9627 8b3d 957d 89bb cfc0 a43d 5453 0b3d
000003a0: c67e ce3d c0da 00bd 2fd4 b6bd 68ab 37b9
000003b0: 78fc 98bd 6963 59bd 7bba c63d c8c7 80bd
000003c0: 7010 94bd b4b1 98bd c861 e1bd ae54 4ebc
000003d0: 2166 c7bd 8974 8cbd 3581 adbd 119d a7bd
000003e0: 1bb8 4b3c 2a82 db3c b9bb c1bd d095 9c3d
000003f0: 53d7 e0bd 54a5 b0bd 730f 803c 8fee 483d
-0.03680069 -0.034485202 -0.11160028 -0.027080348 -0.03604949 -0.15811294 0.036310397 -0.053839106
-0.07666332 -0.081015885 -0.098298505 -0.0897313 -0.087989345 0.038491543 -0.13188797 0.039899323
-0.12767908 -0.053851835 -0.057422485 -0.049356848 0.039515376 -0.019266482 -0.00401346 -0.13958889
-0.10168282 -0.031351876 0.02491152 -0.12832142 0.052833125 -0.056926407 0.033212554 0.031076783
-0.13335143 -0.06284318 -0.11264377 -0.106068775 -0.055171035 0.086179584 -0.034449156 0.02921069
-0.025772057 0.0776751 0.052452438 -0.12436498 -0.035512187 -0.07986894 -0.03851232 -0.066876106
0.036347836 0.056710143 -0.07930147 -0.060606934 0.008347293 0.02094059 -0.025551489 0.043360375
0.1266086 -0.055364307 0.098537795 -0.06980865 -0.012894051 0.028231082 -0.022367502 0.117150575
-0.018852184 0.03777305 -0.044119973 0.087287635 0.02285042 0.10987514 0.09226172 -0.012373066
0.08144477 0.13269943 0.14975318 0.16523013 -2.6049287 0.11266969 0.086225525 0.057946954
0.0016629498 -0.14346617 -0.10475455 -0.066862665 0.023260389 -0.008137991 -0.17425506 -0.15486357
-0.13009839 -1.036757 -0.0076667834 -0.096810855 -0.0018096034 0.0057964907 -0.124649696 -0.032114275
-0.27236938 -0.12405612 0.07946441 0.0024512114 0.12705308 -2.586754 0.041902553 -0.031536534
0.020108191 0.10597518 0.017185917 0.08169625 -0.054159295 0.051430974 -0.101543404 -0.10750527
-0.060176704 0.061707683 -0.9416337 0.0049085817 -0.062673174 0.08152234 0.09349529 0.0002803103
0.09665097 -0.07255071 0.13303716 0.046063576 0.09261396 0.006791229 -2.516035 0.13393255
0.10260888 0.16696179 0.078646995 0.020749018 0.03109172 -0.014246188 0.022327933 0.020520171
-0.049119417 -0.010421171 0.12523444 -0.8912024 0.20336753 0.06933907 0.04704599 0.17589681
0.09115129 0.14559318 -0.19337651 0.16017674 0.25692374 0.27059674 -0.07148248 -0.100499995
0.10928918 0.10413456 0.066946454 -0.065711804 -0.048263725 -0.041839857 0.105636895 -0.006360978
-0.08458912 -0.08859871 0.040927835 0.017681757 0.06822336 -0.0056131887 0.02301744 -0.10308456
0.04590714 -0.04783212 0.09249363 0.097334504 0.084687136 0.11282707 -0.014189536 0.06868185
-0.0011761042 0.052703343 -0.08097307 0.01911246 -0.030193713 -0.013524365 0.06774121 0.04849414
0.05536005 -0.015034397 -0.05675162 -0.035287682 -0.10507399 -0.07390308 0.10093878 0.07120965
-0.03395515 -0.062094778 -0.046926074 0.07168035 -0.045774266 0.03724219 0.028570957 -0.10981653
0.11277604 -0.10672317 -0.10552076 -0.10714743 -0.10767562 0.008031539 0.031075628 -0.058077365
0.002854965 -0.018929522 -0.01169885 0.08803663 -0.006032928 -0.10366898 -0.05468351 -0.0753177
-0.020769104 -0.006669041 0.049917564 -0.044054303 0.002955161 -0.08190382 0.063269846 0.0015388697
0.09603536 -0.085409835 0.083285615 0.039224803 0.0679466 -0.0041958787 0.08044588 0.034015015
0.10082774 -0.031458616 -0.089271896 -0.00017516094 -0.074700296 -0.05307332 0.09703537 -0.06288105
-0.07229698 -0.07455769 -0.110049784 -0.012593431 -0.097362764 -0.06858165 -0.0847191 -0.08184255
0.012434031 0.026795465 -0.094596334 0.07645762 -0.1097857 -0.08625284 0.015632367 0.049055632

bias f4 [82]
00000000: 4b09 4a3e 0ddb 013e cfc4 c6bd 8403 e7bd
00000010: 1ce8 d63b 6393 d93d 75b4 97bd 259c d23d
00000020: aa4d 81bd bb95 963d 8b11 e73d 2f14 02bd
00000030: 9d24 e53d d485 a0bc 2c37 35bd 5cdb e73c
00000040: 14c1 2bbc 1dda f6bc 1370 d03d 7eb6 2d3c
00000050: db3c 01be c880 dabd c082 f6bd d7c1 cc3b
00000060: 5267 ba3d 7f8b 343e fd96 903d b6fa 003c
00000070: a7aa a63c 8a96 d6bd 7524 7a3d 5b9e 743a
00000080: 2da9 b93d a26d f7bd dffe 18bc df30 b63d
00000090: 6738 59bd 209a 46bd 6a03 7ebd cf88 f9bd
000000a0: cc7e efbc 665d f13d 21c6 273d c08d d5bd
000000b0: 19e6 3f3e 99d1 c3bd f7ab 1c3e 3f9c 3abd
000000c0: 2b33 0ebc 3c42 bf3d 18f4 25bd fc40 1bbd
000000d0: 4c5c f43d 25da 22bc 104b 02bd 5141 e03d
000000e0: bcea 9abc 49c2 de3d b6e3 6ebc c5f4 133e
000000f0: 5328 38bd 0baf 03be 1128 193d 0b25 d5bd
00000100: 3705 8f3d be0b b6bc 1cbe 7b3e dff6 9ebd
00000110: 0062 96bd cbe7 943d 6f77 31bd b507 ea3d
00000120: 0121 25bd 1c5e cfbc 0dde 9cbd 2135 bbbd
00000130: 2eb2 113e 0bf9 adbd 8368 bcbd 33f1 4a3d
00000140: 5933 0ebd 22c7 693d
0.19730107 0.12681217 -0.09705507 -0.112799674 0.0065584313 0.10623815 -0.07407466 0.102836885
-0.06313641 0.073527776 0.11282643 -0.03175753 0.11188624 -0.019595064 -0.04424207 0.02830284
-0.010483045 -0.030133301 0.101776265 0.010602592 -0.12620871 -0.10669094 -0.12036657 0.0062486934
0.09101738 0.17631339 0.07060049 0.007872274 0.020345045 -0.10477932 0.061069924 0.0009331458
0.09065471 -0.12081458 -0.00933811 0.0889604 -0.053032305 -0.04848683 -0.062014975 -0.12184297
-0.029235266 0.117853925 0.040960435 -0.10427427 0.18740119 -0.09561462 0.15299974 -0.045559164
-0.008679192 0.09338805 -0.04051599 -0.03790377 0.11931667 -0.009939705 -0.031809866 0.10949958
-0.018910758 0.10876901 -0.014580658 0.14448841 -0.04496033 -0.12859742 0.037391726 -0.10407456
0.069834165 -0.022222396 0.2458424 -0.07761931 -0.07342911 0.072707735 -0.04332679 0.11427251
-0.040314678 -0.02531343 -0.0765954 -0.09140993 0.14228126 -0.08494767 -0.091996215 0.04954643
-0.034716938 0.057074673

weight f4 [82, 82]
00000000: c13e a13d a13d cdbd 7bb4 0dbc bab2 203c
00000010: 0109 1fbc 80a7 523d 098a eb3c 0d9a b53d
00000020: 5107 95bd f1db 83bd 19e2 46bd 0cc1 da3c
00000030: 7c28 03bc 5ce1 3ebd 2724 cdbd 9b53 3ebc
00000040: 2bcc 8bbd f5ec 07bd 721c 943d b7ac e4bc
00000050: 3a2b dcbd 7463 393d 3686 963d 3dee 78bd
00000060: 257e c0bd 6929 5ebd eab6 733d 928b 3d3d
00000070: 699b 63bb 2d55 303d 53a2 a43c 2060 83bd
00000080: 2b89 c9bb 563f 17bd 844c 003d 137f e83c
00000090: 8040 8e3d 0675 303d 9ddb bdbc 8c52 47bd
000000a0: 7fee 3f3d 5f21 d9bd 37a3 5d3d 01e2 17bc
000000b0: 4709 5abd afb8 b5bc 9eb3 bd3d 454a e1bd
000000c0: d59a b9bd ce12 2cbd ab61 86bd 851d 89bd
000000d0: 58df 1dbd 263e e6bb 17d7 5c3d 6a44 3639
000000e0: 9046 0dbd 6c41 333d 4f80 843d b25b 5fbb
000000f0: e92f fd3c 2ae4 dc3d d1f0 adbd 88d7 243d
00000100: 2535 9dbc 5234 8e3d 24df 133d dd6c cbbd
00000110: 79d1 71bd ee12 45bb bb2e 9e3d 6585 953c
00000120: 5e3e c93c 20c4 333d fae3 ffbd fd38 8b3d
00000130: 66a2 833d 41b5 e43c dfdf d6bd 4ca6 ffbd
00000140: 6fc7 dabd 36e5 f6bc c7dd c5bd ac1b b6bd
00000150: 3a1e f8bc 813e cbbc 8de6 0e3d 8e72 e03d
00000160: afb7 383d 4cdf e83c 324d c7bd 2222 aebd
00000170: dedb 423d 2cef 91bd 6fab 133d 16cd 603d
00000180: 689e 9abd c4fc 02be 7f5d d3bd 4b67 4a3d
00000190: a4a3 c3bd 89b7 013d 0d44 ad3d eccf f9bc
000001a0: 731b d6bc e633 f43c 5d5b 6b3d ae43 403d
000001b0: 914b 5bbd d2d7 e1bc 90d4 8cbc d6f8 a9bc
000001c0: f4d8 11bd 171f 97bd d3df c03c 42f2 fabd
000001d0: 4a4c 2a3d 5c5c 80bc 1141 803d 875e bfbd
000001e0: e9ba adbd 1a50 a0bd e664 c23c d6cb 773c
000001f0: 67d0 61bd 669b 843d 16dd 3bbd 3e24 3e3d
00000200: 5d04 3abd 7d97 c73d 120d 9fbd b370 cf3d
00000210: 94d4 13bd d47f d4bd f68d 913c 5764 8c3c
00000220: a547 ee3c 1d45 30bd 8c16 373d 59d8 1fbd
00000230: 8b76 53bd 927a 853d ac52 3d3d 130b 96bd
00000240: 6f33 123d 79d6 ddbd 5edb 513d b8c1 8b3b
00000250: b718 b5bd 93ac 18bd 94f5 4d3d b0ea 93bd
00000260: dd6a a73d 86c3 41bd 1878 3cba dd99 c43d
00000270: 5072 aabd 59e4 5b3d c5da d9bd 548b ddbd
00000280: dad5 523d 2d96 ccbd 11dc b43d f9e9 aabd
00000290: b9e7 2fbd 86a0 74bd a986 4dbb f1f7 5abd
000002a0: de2f eabd f779 d13c 3629 a63d f4bf bdbd
000002b0: c324 a0bd a241 883d 17ef 88bd 6394 403d
000002c0: d421 8ebd ce60 34bd 78d1 323d 4396 4d3d
000002d0: d604 c0bd 2560 96bc 235a 81bd 783c 02bd
000002e0: 4a46 4b3d 58fc 93bd 4820 863d 962e 073d
000002f0: 6215 85bd 6a2f 91bc 2e96 68bc f7c1 18be
00000300: 1776 0cbe 56b7 503d 1115 05be a39f cbbd
00000310: 7ce1 103d 31ce fbbc 8010 60bd f083 04bd
00000320: 0a3d dc3c 7ec5 ad3c d4c1 c4bd e691 8dbc
00000330: 47f4 933c 5725 c4bd 365c 1dbc f453 dc3c
00000340: b9eb 6c3d 43c5 083d 1539 acbd 679b 433c
00000350: 17b8 3c3d a295 923d d16c e83b 0d44 c43c
00000360: 9920 69bd 33c4 cb3d b478 d93c 5f24 b4bd
00000370: 72a9 94bc 601f b2bd 28ba 68bd 1f70 6ebd
00000380: 9241 bd3d ca7c c4bb 7d6c fcbd ce3b a83d
00000390: 48cb 3f3d 4f3c 823d 5a6d 68bd fe3f b83d
000003a0: a8c3 5fbc ae71 91bd 8540 8a3d 76f4 aabd
000003b0: 4ec2 efbd 1101 c8bd a942 d0bd 332c 4ebc
000003c0: cd08 f9bc 73a4 c13d 8b20 dfbc 5954 83bd
000003d0: 9f45 b73d 8202 b93c 517a aabd b0d8 3dbe
000003e0: 14fd 53bd 8b33 49bd 3830 87bd fc34 e7bc
000003f0: cf9d be3d 5d77 4dbb d194 47bd 60d2 3a3d
0.078732975 -0.100215204 -0.008648987 0.009808237 -0.009706737 0.05142927 0.028752344 0.088672735
-0.07276786 -0.06438435 -0.048555467 0.02670338 -0.008005258 -0.04660164 -0.10016661 -0.011616613
-0.06826051 -0.033184964 0.07231988 -0.027914388 -0.10750432 0.04526086 0.073498175 -0.060774077
-0.0939906 -0.05423871 0.059500612 0.046275683 -0.0034730083 0.04304998 0.020096933 -0.06414819
-0.006150385 -0.036925636 0.03132297 0.028380906 0.06945896 0.043080352 -0.023176009 -0.048662707
0.046858307 -0.10602068 0.054110732 -0.009270192 -0.053231504 -0.02218279 0.09262775 -0.11000494
-0.09062735 -0.04201012 -0.065615974 -0.066950835 -0.038543075 -0.0070264516 0.053916063 0.00017382359
-0.03449112 0.043763563 0.064697854 -0.0034081754 0.030906634 0.10785706 -0.08493198 0.04024461
-0.01919038 0.06943573 0.036101475 -0.099328734 -0.05903766 -0.0030071097 0.07723757 0.018252084
0.024565872 0.04388821 -0.12494655 0.06797979 0.064274594 0.02791846 -0.10491919 -0.124828905
-0.1068257 -0.030138593 -0.09661441 -0.08891997 -0.03028785 -0.024810078 0.03488784 0.109593496
0.04509705 0.028426789 -0.09731521 -0.08502604 0.047572963 -0.071256965 0.036052164 0.054883085
-0.07549745 -0.12791735 -0.10320567 0.049414914 -0.09552696 0.031669173 0.08460245 -0.030494653
-0.026136136 0.029809903 0.057460178 0.046939544 -0.053538863 -0.027568731 -0.017191201 -0.020748537
-0.035607293 -0.07378977 0.023544228 -0.12253238 0.04157666 -0.01566904 0.062624104 -0.093442015
-0.08482916 -0.07827778 0.023729753 0.015124282 -0.05513039 0.064749524 -0.04586514 0.046421282
-0.045414317 0.09745691 -0.07766165 0.101289175 -0.036091402 -0.10375944 0.017767888 0.01713769
0.029086897 -0.04303466 0.044699237 -0.039024685 -0.051626723 0.06517519 0.04622142 -0.07326331
0.035693582 -0.10831923 0.051234595 0.0042650364 -0.088426046 -0.037273955 0.05028303 -0.072224975
0.081746794 -0.047305606 -0.0007189526 0.095996596 -0.08322585 0.053684566 -0.1063743 -0.1081759
0.051473476 -0.09989581 0.08831037 -0.08345408 -0.042945597 -0.0597234 -0.0031360781 -0.05345911
-0.11434911 0.025570853 0.08113329 -0.09265128 -0.07819512 0.066531435 -0.06686228 0.047016513
-0.06940046 -0.044037633 0.043656796 0.05019213 -0.093759224 -0.018356392 -0.0631602 -0.03179595
0.04962758 -0.07225865 0.06549126 0.033003412 -0.06498219 -0.017722804 -0.014195962 -0.14917742
-0.13716923 0.050956093 -0.12996317 -0.09942558 0.03537129 -0.030737968 -0.054703236 -0.032352388
0.026884574 0.021212336 -0.09607282 -0.017281484 0.018060816 -0.095774345 -0.009604504 0.0268955
0.05784199 0.03339125 -0.08409325 0.011938906 0.046074 0.071574464 0.00709305 0.02395823
-0.056915853 0.099495314 0.026546814 -0.08796 -0.018147204 -0.086973906 -0.056818157 -0.058212396
0.09241022 -0.0059963213 -0.1232538 0.08214532 0.046824723 0.06359159 -0.05674491 0.089965805
-0.013657488 -0.07101761 0.067505874 -0.083474085 -0.117069826 -0.097658284 -0.101689644 -0.01258378
-0.030399704 0.09455194 -0.027237197 -0.064125724 0.08948826 0.022584204 -0.08324111 -0.18539691
-0.051755026 -0.04912142 -0.06600994 -0.028223507 0.09307443 -0.0031351664 -0.048725907 0.045610785

bias f4 [82]
00000000: 5aa9 10be 727a e3bd 0c8a 81bd 432d bbbc
00000010: def6 32bd 6eb6 e7bb 3f0f 45bd 416b ee3b
00000020: 820e e8bc a04e 8dbc fe2a 6a3d bfda 56bd
00000030: 5da9 a1bd 542c 13be 28fd 02bd 532a 15be
00000040: 453b 01be 4c2e 83bd 36ea 073e ecee dabd
00000050: 09de ab3d 541f b53d 8468 e43d 127b 75bc
00000060: 376d 84bc b34b 54bd 4d1b 9bbd 7ffb 273d
00000070: d82d 33bd 8fbd bbbc e1b4 fbbc 66a2 d03d
00000080: 5521 aabd 6821 433e c754 ea3d 0d7b f1bd
00000090: 9368 403d 6239 f7bb fd03 11be f72c 9dbd
000000a0: ab15 223e a21d b23d 8d4d 5fbd aaef 9dbc
000000b0: 5ea7 e3bc 0ab7 38bb 5802 e83c 05e6 13bd
000000c0: e2d1 bd3c 9fc8 cabd 4681 8cbd bb50 023d
000000d0: b7c1 58bd 2e0e 273d 4912 963b 426e c73d
000000e0: 9742 74bd 13ca 983e 15cd 9dbc 4af0 293e
000000f0: 03be 16be 9760 803d 8b81 a4bc 98fc 2ebc
00000100: 024a be3e d816 aa3c 2f03 563d 3bd5 5bbd
00000110: 3689 d43d 4f0a eebd b28b 303c 48ca 3c3d
00000120: a54a 0f3d f472 a6bd 6fc1 ccbd 00a9 25bd
00000130: 35a0 99bc aa15 86bd f095 793c 6b3c 9b3d
00000140: 9de9 133e 5d57 0b3d
-0.14127102 -0.11107339 -0.063251585 -0.02284873 -0.043692462 -0.007071308 -0.048110243 0.0072759693
-0.02832723 -0.017249405 0.057169907 -0.052454706 -0.078936316 -0.14372379 -0.03197971 -0.14566927
-0.12620266 -0.06405315 0.13272938 -0.10690102 0.08391959 0.08843866 0.11152747 -0.0149829555
-0.016165359 -0.051830005 -0.075735666 0.04101133 -0.043744892 -0.022917537 -0.030725898 0.10187225
-0.08307139 0.19055712 0.11441951 -0.11791048 0.04697473 -0.0075446824 -0.14161678 -0.07674592
0.15828578 0.08697058 -0.054517318 -0.01927932 -0.027789768 -0.0028185272 0.02832143 -0.036108036
0.023171369 -0.09901547 -0.068605945 0.03181527 -0.052919116 0.040785007 0.0045798165 0.09737827
-0.059633818 0.2984167 -0.01926283 0.16595569 -0.14720921 0.06268423 -0.020081302 -0.01068034
0.37165838 0.020762846 0.05224913 -0.05367015 0.103777334 -0.1162306 0.010775493 0.046091348
0.034983296 -0.08127394 -0.09997832 -0.040444374 -0.01875315 -0.06547101 0.015233502 0.07579883
0.14444585 0.034018863

weight f4 [2, 82]
00000000: 4761 bd3c ec9f 15bd 2ec0 55bd c29a 673e
00000010: 574c b13e eaf3 e938 9a50 243f 5515 f63d
00000020: 8b15 51bc 3894 cd3e 22a2 b33c 86fd 52ba
00000030: 906d b53d a394 e6bc 718f e23d c789 d5bc
00000040: f62d 81bd 8ad5 ed3c f389 cb3e c0a0 98bc
00000050: 64cd dabd 35fd 0abd ac82 433e 1a0a 013c
00000060: 6d5f 433d 760e e73e 3423 98bc 7982 2a3e
00000070: 11d1 c43c 9e6f 753d 7114 de3e 76a7 dcbd
00000080: 3138 7cbb 924b a33e 2bda 19be 5829 24bd
00000090: 8cf8 4c3d 2fa0 c23e 0e47 17bd d925 81bd
000000a0: c1bf a43e 3111 c3bd c5f4 643d 49c8 1c3f
000000b0: 7c3a 833e d668 ce3e 8a12 d03e 779d a83e
000000c0: 3c07 f53d cbf4 87bd eca0 89bd 5b42 6ebd
000000d0: 7899 4a3c bc5c f5bc cb3f 4c3f c717 733d
000000e0: a489 113b 823e aebe a5bf f23e 6bba 62be
000000f0: d35f 013e 7bc6 163e 51b1 89bc f68c aabd
00000100: 38ea d3be fc91 55bc 6745 413d 01a2 c13c
00000110: e9f0 ba3d 4b0a 83bc 4621 7e3e 3877 2cbe
00000120: 2fe7 ac3e 1b71 e3bb a36e 88bb a21a 253f
00000130: 36e5 7cbc 6116 83bb 696d 3f3e e8d5 7a3e
00000140: fc81 7c3e fd8e a33e 1be9 7dbd fb58 9e3c
00000150: 6c76 ae3d 9a59 c33d 03a3 903d f6e4 74ba
00000160: 5aaf 9c3d 370f 0dbd 0f82 b23d bc85 163d
00000170: 294f a0bc a2ea b3bc 8b31 e6bb ed0f 2b3d
00000180: bca5 d9bb 273b 29bd eaa1 1ebd 2eb3 893d
00000190: d1df 70bc d1a1 c2bc 8315 c03b 4bca 0d3d
000001a0: cd29 1638 efb9 ba39 75f0 283c 566d 8f3d
000001b0: a791 c4bb 0355 24bc 591e 463b b27c bbbc
000001c0: 6d20 22bd 5a21 fbbc ea5d 0c3c ce46 b23a
000001d0: d3b1 53bd 6061 54bd d01b a63d c39e fb3a
000001e0: 37f9 2ebc fcf9 053d fa78 b6bc 8be6 2dba
000001f0: 55e0 b73c 0949 5cbc 5b81 c33c 2160 2d3d
00000200: 6b3b 74bc 98b0 ffbc f160 4b3c 5a9c 053b
00000210: 8b1a b8bc 4c89 debc fd25 2cbd 72ff bb3b
00000220: b9be 71bd 04fa bb3c ebd2 153c 8cd8 8dbc
00000230: b2f8 973c ff79 103c dd16 faba 6273 e53c
00000240: dd96 c2bc 37f9 053d bb7d 5a3d e556 debb
00000250: 4664 2ebd 02ec 34bc 8a5a 0c3e c08a 91bc
00000260: 0e76 8bbb bd66 0e3e a3a6 92bc 967f a5bc
00000270: 5121 543c c2b4 72bb 2c09 e93c 8824 ae3d
00000280: 31e7 3ebd b04e 273d 89aa df3a 2065 08bc
0.023117675 -0.036529467 -0.05218523 0.22617629 0.34628555 0.00011155738 0.6418549 0.120157875
-0.012761484 0.40152144 0.021927897 -0.0008048642 0.08858788 -0.028147047 0.110625155 -0.026066674
-0.063075945 0.029032487 0.39753684 -0.01863134 -0.106837064 -0.033932883 0.19092816 0.007875944
0.047698427 0.4512822 -0.018571474 0.16651334 0.024025472 0.0599209 0.4337497 -0.10774128
-0.003848564 0.31893593 -0.1502463 -0.04007849 0.05004172 0.38012835 -0.036932997 -0.06306047
0.32177547 -0.095247634 0.055897493 0.6124311 0.25630558 0.40314358 0.40639144 0.32932636
0.119642705 -0.066384874 -0.067201465 -0.05816875 0.012365691 -0.029951446 0.7978484 0.059348848
0.0022207284 -0.34032065 0.47411838 -0.22141425 0.1263421 0.14724152 -0.016808184 -0.083276674
-0.41389632 -0.013035294 0.047185328 0.02363682 0.09127981 -0.015996119 0.2481738 -0.16842353
0.3377013 -0.0069409735 -0.0041635795 0.64493763 -0.0154355075 -0.0040004705 0.1869408 0.24495661
0.2465896 0.3194503 -0.061989885 0.019329539 0.08518681 0.095385745 0.07062342 -0.0009341979
0.07650633 -0.034438338 0.08716213 0.036748633 -0.019568997 -0.021962468 -0.007024949 0.041763235
-0.0066420715 -0.041316178 -0.038728632 0.06723629 -0.0147017995 -0.0237588 0.0058619394 0.03461675
3.5801717e-05 0.00035615216 0.010311236 0.07003276 -0.0059988084 -0.010030034 0.003023049 -0.022886608
-0.039581705 -0.030655552 0.008567313 0.0013601424 -0.05168326 -0.051850677 0.081107736 0.0019197095
-0.010679535 0.032709107 -0.022274483 -0.000663378 0.022445837 -0.013445147 0.023865392 0.042328004
-0.0149067445 -0.031212136 0.012413249 0.0020387382 -0.022473594 -0.027165078 -0.042028416 0.0057372386
-0.059019778 0.022946365 0.009144525 -0.017315172 0.018551204 0.008818149 -0.00190803 0.02800912
-0.023753578 0.032708373 0.053342562 -0.006785261 -0.042576097 -0.011042597 0.13706413 -0.017766356
-0.0042560166 0.13906379 -0.017901724 -0.02020244 0.012947396 -0.003703401 0.028446756 0.085030615
-0.0466072 0.040846527 0.0017064373 -0.008324891

bias f4 [2]
00000000: ac5d db3d 54f3 d8bb
0.10711226 -0.006620804
