model.pt (torch, 199924 bytes, 6 tensors)

weight f4 [128, 250]
-0.029367615 0.00034025233 -0.023349706 -0.030069092 -0.065229215 -0.044886217 0.025691645 -0.06435225
0.045338284 -0.0040780404 -0.029922508 0.033115834 -0.052406456 0.031035481 -0.04649922 0.043291226
-0.01405203 -0.013012798 -0.049793098 0.04352681 -0.044291284 -0.039570976 -0.045977328 -0.001641116
-0.06352846 -0.011934314 -0.06782783 -0.020948142 -0.03931028 -0.0571366 0.011835027 0.03508029
-0.0139287505 0.04248876 0.037329804 0.055856206 -0.008278746 -0.00813073 -0.063074976 -0.042352337
-0.033008467 0.030051522 -0.039562464 -0.030878622 0.030226938 -0.035112716 0.016648054 -0.015853152
-0.028906232 -0.04520159 0.0109250685 -0.06183203 -0.053792115 0.0020419857 -0.043065675 -0.047016695
0.054503575 -0.066625185 -0.014594132 -0.05521156 0.026482416 0.05135311 -0.056435287 0.04333263
-0.045122538 -0.014644284 -0.010602399 0.004853338 -0.014269898 -0.054362357 -0.043247227 -0.050896738
-0.00086410035 -0.055600177 0.020517815 0.026297623 -0.015661756 -0.025922162 -0.036023192 -0.04262352
-0.030895159 0.002637745 -0.0150056565 -0.044976134 -0.05662444 0.039177854 0.0395468 0.041076913
-0.061689563 -0.040928446 0.05454271 0.019116461 0.0038519513 0.009672983 -0.02531022 0.010135777
0.04943835 0.020881139 -0.022222944 0.032684527 -0.050185125 -0.048717726 -0.010074561 0.0085406555
0.05594324 0.038162146 0.04093735 0.008804552 0.005403658 0.0364922 -0.038573608 0.021242961
-0.066919364 0.019657202 0.044006985 -0.059665065 0.04521804 -0.026275953 0.033318873 -0.010704181
0.045736313 -0.02566341 -0.043005086 0.009093051 0.006339865 -0.030614926 0.0126477 -0.043815702
0.011535734 -0.05851665 0.0028489083 -0.044253524 -0.001074166 -0.048058365 -0.011899291 0.008688561
-0.06892381 0.041122712 0.046375696 0.044950895 -0.016706936 -0.03738637 -0.066620186 0.05538017
0.054082908 -0.059086353 -0.063873045 -0.044287555 -0.0251036 -0.033717453 -0.012571675 -0.022314034
0.044131514 0.0019614275 0.0498201 -0.0021708766 0.040000662 0.0015747248 -0.068856746 0.015958313
-0.0070525403 0.033007216 0.023087341 0.014399927 0.040630683 -0.053741433 -0.06034955 -0.05738924
-0.03788963 -0.020685155 -0.0013604183 0.036146883 -0.013489058 0.016410276 -0.017153513 -0.017781772
-0.048977096 0.011813945 0.040447447 -0.0071889064 -0.064297654 0.045307707 -0.0022000845 -0.063280374
0.036257647 -0.04695055 0.02192519 -0.040245254 0.046616018 0.03218561 0.0207161 -0.023979962
-0.065880455 0.054604754 0.0004328523 0.035156846 0.024404377 -0.040285595 0.04207279 0.03740376
-0.033063494 -0.056771815 -0.042675667 -0.015147654 -0.06723137 0.043104764 -0.017669912 0.028300295
-0.055194177 -0.051585834 0.042123046 -0.02604278 0.034280874 -0.053147312 0.002881852 0.005162754
0.00012109807 -0.057216275 0.05198999 -0.0313312 -0.05783548 -0.026904088 -0.00027160667 -0.032590352
-0.056822866 -0.023036255 0.05353549 -0.028099537 0.02113863 -0.046672795 0.010243585 -0.041916285
0.05055429 0.009544178 -0.005080931 -0.010602995 -0.03866747 0.031671893 0.033233304 -0.037509557
-0.008181322 -0.016358057 -0.006636046 -0.023793085 0.019576013 -0.0070967684 -0.029588412 0.009158204
0.030135568 0.0033606924 0.031253308 0.037503287 -0.01849883 0.029579159 0.00439403 0.035701264
00000000: 5a94 f0bc e563 b239 e247 bfbc 7553 f6bc
00000010: e596 85bd 9cda 37bd 4977 d23c 1dcb 83bd
00000020: a3b4 393d 15a1 85bb 0c20 f5bc 78a4 073d
00000030: 27a8 56bd 1f3e fe3c f775 3ebd 2452 313d
00000040: 7c3a 66bc a133 55bc d9f3 4bbd 2b49 323d
00000050: c76a 35bd 2d15 22bd b952 3cbd b71a d7ba
00000060: 361b 82bd 2488 43bc 51e9 8abd 709b abbc
00000070: d103 21bd 1108 6abd b3e7 413c 5ab0 0f3d
00000080: 6a35 64bc b208 2e3d 23e7 183d 7ac9 643d
00000090: 94a3 07bc c136 05bc 742d 81bd a579 2dbd
000000a0: e333 07bd 9c2e f63c 400c 22bd 2af5 fcbc
000000b0: 7c9e f73c 5ad2 0fbd 8061 883c 78de 81bc
000000c0: c3cc ecbc 4d25 39bd 0fff 323c 9543 7dbd
000000d0: 1f55 5cbd d6d2 053b a265 30bd 9494 40bd
000000e0: 243f 5f3d c972 88bd 3a1c 6fbc 8425 62bd
000000f0: a7f1 d83c a357 523d b028 67bd 8e7d 313d
00000100: 69d2 38bd 94ee 6fbc afb5 2dbc c008 9f3b
00000110: 4acc 69bc 10ab 5ebd 0124 31bd 1979 50bd
00000120: cb84 62ba 03bd 63bd fa14 a83c 1d6e d73c
00000130: 154d 80bc b75a d4bc 0e8d 13bd 0096 2ebd
00000140: d817 fdbc 05de 2c3b 49da 75bc e538 38bd
00000150: 07ef 67bd f578 203d d3fb 213d 4440 283d
00000160: 32ae 7cbd 96a4 27bd 2d68 5f3d 209a 9c3c
00000170: 0571 7c3b 6e7b 1e3c 6157 cfbc 8810 263c
00000180: de7f 4a3d ec0e ab3c e40c b6bc 36e0 053d
00000190: eb8e 4dbd 3d8c 47bd c60f 25bc 1bee 0b3c
000001a0: bd24 653d e94f 1c3d ecad 273d f840 103c
000001b0: 2b11 b13b d878 153d 5cff 1dbd b805 ae3c
000001c0: 050d 89bd 2408 a13c ab40 343d 5b63 74bd
000001d0: 8d36 393d ab40 d7bc 5f79 083d 9760 2fbc
000001e0: 0056 3b3d 123c d2bc 1a26 30bd 05fb 143c
000001f0: a4be cf3b 27cc fabc 4c38 4f3c 1878 33bd
00000200: 6000 3d3c 28af 6fbd c0b4 3a3b 2f43 35bd
00000210: 08cb 8cba d9d8 44bd 3ef5 42bc 775a 0e3c
00000220: ed27 8dbd 4a70 283d 71f4 3d3d 6e1e 383d
00000230: fcdc 88bc 7322 19bd 2a70 88bd 51d6 623d
00000240: 0a86 5d3d 8804 72bd dfcf 82bd de66 35bd
00000250: 11a6 cdbc 501b 0abd 6df9 4dbc eccb b6bc
00000260: 3fc3 343d 4b8b 003b 2910 4c3d 4445 0ebb
00000270: bcd7 233d ff66 ce3a c404 8dbd 02bb 823c
00000280: ff18 e7bb 9332 073d aa21 bd3c aced 6b3c
00000290: 5c6c 263d fa1f 5cbd 1731 77bd fb10 6bbd
000002a0: 2832 1bbd ea73 a9bc 1050 b2ba c10e 143d
000002b0: 3601 5dbc d86e 863c 8685 8cbc 14ab 91bc
000002c0: 359c 48bd 478f 413c 39ac 253d eb90 ebbb
000002d0: 7dae 83bd 9394 393d 4b2f 10bb 2499 81bd
000002e0: e682 143d 384f 40bd 759c b33c 35d8 24bd
000002f0: 70f0 3e3d 0fd5 033d d0b4 a93c a071 c4bc
00000300: 55ec 86bd 3ca9 5f3d 74f0 e239 a000 103d
00000310: b0eb c73c 8202 25bd 8554 2c3d af34 193d
00000320: 966d 07bd 9089 68bd aecc 2ebd de2d 78bc
00000330: 9ab0 89bd 9f8e 303d 7ec0 90bc 05d6 e73c
00000340: 4a13 62bd ab4b 53bd 3789 2c3d ab57 d5bc
00000350: 1a6a 0c3d ffb0 59bd 74dd 3c3b 522c a93b
00000360: 08f6 fd38 9d5b 6abd 75f3 543d 2555 00bd
00000370: e5e4 6cbd f665 dcbc 6e66 8eb9 767d 05bd
00000380: 18bf 68bd 87b6 bcbc 0848 5b3d 0031 e6bc
00000390: ec2a ad3c f92b 3fbd b6d4 273c 69b0 2bbd
000003a0: 0412 4f3d 2f5f 1c3c f07d a6bb 2fb8 2dbc
000003b0: c861 1ebd 63ba 013d a51f 083d 9fa3 19bd
000003c0: f40a 06bc 5501 86bc 3073 d9bb b7e9 c2bc
000003d0: e05d a03c 028c e8bb 6663 f2bc 4b0c 163c
000003e0: dede f63c 103f 5c3b 7803 003d 0c9d 193d
000003f0: dc8a 97bc fe4f f23c ccfb 8f3b 7d3b 123d

bias f4 [128]
-0.0037778236 0.037982747 0.057758056 0.0025791666 -0.027249059 -0.026850583 -0.052959085 -0.021353409
-0.057688575 0.03706817 -0.040896382 0.021309877 0.060313947 0.0655112 0.022979055 0.07505043
0.022549767 0.055215914 -0.0017478057 0.054922026 -0.032284923 -0.03442599 -0.014152095 -0.008502468
-0.04458557 -0.00162738 -0.060505316 0.03505961 -0.056401376 -0.033467412 0.05864332 -0.004168862
0.0034144628 -0.04697808 0.0019182165 0.114538856 -0.031801105 -0.031418864 -0.014004696 -0.0037389558
0.00051828707 0.038320698 -0.04956284 0.004544489 0.019963007 -0.06053098 -0.000121579935 0.06500513
-0.05670626 -0.015173316 0.02836127 0.046819206 -0.027915126 0.057910822 -0.05113843 -0.057531472
0.05492503 0.03438738 0.08406029 0.0806161 -0.05471341 -0.04131815 -0.058155738 -0.04075374
-0.018247627 -0.027686296 -0.025447704 -0.036812972 -0.038239643 0.0837973 0.080066875 -0.00885266
-0.05663234 0.07926797 0.05200846 -0.061481573 -0.0026475755 0.007707671 -0.059761945 -0.03603582
0.05460972 -0.010907013 -0.049696177 0.052055012 -0.034603328 0.021890076 -0.048269264 -0.00037853376
0.018871075 -0.049400985 0.031291515 -0.0067740446 -0.06350836 -0.03479567 -0.0023078579 -0.0072802613
-0.0025103884 -0.013115687 -0.068005964 0.045644738 -0.03346045 0.012215234 0.13324863 0.062213507
-0.0076647378 -0.022179132 -0.047332775 -0.026136244 0.049256008 0.061301995 -0.01821665 0.038026586
-0.03216639 0.02380083 -0.012028935 -0.056318115 -0.05634026 0.04053187 -0.040253434 0.05382663
-0.05359791 -0.05660864 0.024654226 -0.005645283 0.07737164 -0.06062498 -0.0048281234 -0.060116168
00000000: 5d95 77bb cc93 1b3d b693 6c3d 3c07 293b
00000010: 6b39 dfbc c1f5 dbbc a0eb 58bd 58ed aebc
00000020: db4a 6cbd cbd4 173d f782 27bd 0d92 ae3c
00000030: c20b 773d bc2a 863d 923e bc3c 0ab4 993d
00000040: 4aba b83c 152a 623d a116 e5ba ebf5 603d
00000050: 323d 04bd 4402 0dbd 30de 67bc ef4d 0bbc
00000060: 5c9f 36bd d04d d5ba 6cd4 77bd aa9a 0f3d
00000070: 2105 67bd 2015 09bd fa33 703d f39a 88bb
00000080: 2ec5 5f3b 166c 40bd aa6c fb3a 5993 ea3d
00000090: e041 02bd 11b1 00bd f473 65bc 4509 75bb
000000a0: a8dd 073a 2af6 1c3d 6802 4bbd f0e9 943b
000000b0: 7689 a33c 55ef 77bd bbf8 feb8 6921 853d
000000c0: d344 68bd 8099 78bc e555 e83c 7fc5 3f3d
000000d0: 43ae e4bc e633 6d3d 8876 51bd 1fa6 6bbd
000000e0: 11f9 603d c8d9 0c3d cd27 ac3d 0e1a a53d
000000f0: 2b1b 60bd 383d 29bd b634 6ebd 65ed 26bd
00000100: 0c7c 95bc 5fce e2bc b477 d0bc 33c9 16bd
00000110: 2ca1 1cbd eb9d ab3d 1afa a33d bf0a 11bc
00000120: 50f7 67bd 3f57 a23d d306 553d 1ad4 7bbd
00000130: f282 2dbb a190 fc3b f1c8 74bd 4c9a 13bd
00000140: 71ae 5f3d 54b3 32bc 388e 4bbd a337 553d
00000150: 38bc 0dbd d152 b33c feb5 45bd f175 c6b9
00000160: 8397 9a3c b058 4abd 882b 003d cef8 ddbb
00000170: ac10 82bd e885 0ebd 6e3f 17bb 428f eebb
00000180: 5485 24bb 2ee3 56bc b646 8bbd faf5 3a3d
00000190: d30d 09bd 6822 483c 5472 083e 97d3 7e3d
000001a0: 7b28 fbbb 03b1 b5bc 03e0 41bd ad1b d6bc
000001b0: abc0 493d cd17 7b3d 153b 95bc c4c1 1b3d
000001c0: e8c0 03bd f5f9 c23c 0315 45bc d3ad 66bd
000001d0: 0bc5 66bd bf04 263d c9e0 24bd 5079 5c3d
000001e0: 7b89 5bbd 76de 67bd a9f7 c93c 11fc b8bb
000001f0: 0675 9e3d e651 78bd 3c35 9ebb 5f3c 76bd

weight f4 [128, 128]
0.01805108 -0.0050847135 -0.07176969 0.012217539 -0.19716974 -0.019743858 -0.06338609 -0.02764972
-0.003685985 -0.07588909 -0.034498416 -0.018178051 -0.07816004 0.02643702 0.039164394 0.052978355
-0.06041768 -0.08215914 -0.033953823 -0.05491475 -0.006430741 0.008977268 -0.07852948 -0.0671156
0.08765461 -0.0006665265 -0.019140115 0.059388608 -0.048938666 -0.051180635 0.08304192 -0.02805702
0.036236286 0.03210815 -0.07611688 0.1263825 0.05704834 0.024249874 -0.011429962 0.062144555
-0.105199635 0.04223042 -0.039957456 0.0022395984 0.03385481 0.055260047 -0.011949267 -0.008964962
-0.053556386 -0.017015915 0.029957784 -0.059877038 0.05083889 -0.02359659 -0.04288446 -0.08440708
-0.048473578 -0.023934238 0.130905 0.07620757 -0.031741865 0.049515463 0.010043423 -0.09037974
0.03950144 -0.003804756 0.00041493904 0.06662921 -0.011976496 0.100242645 0.09367204 -0.05843137
0.06406111 0.089071356 0.06963335 -0.008430554 0.036185633 -0.0026022554 0.016469207 0.07132392
0.050047673 -0.036094375 0.050307255 0.11243515 -0.05767532 0.039670244 -0.05590264 -0.03658789
0.0016008018 0.08824075 -0.037836403 -0.035759564 0.071493074 0.009706736 0.05757568 -0.029112367
-0.07578113 -0.023600489 -0.07543036 0.06169647 0.03939766 -0.012985764 0.09517703 0.11286377
-0.046934847 0.031174874 -0.02278716 -0.017367747 0.016737564 0.13251066 -0.051816326 -0.07748247
-0.015551997 -0.074023865 0.009128383 -0.092352524 0.056815498 -0.10307794 0.012995127 0.036076803
-0.0076437206 -0.056168884 -0.00031648108 0.067932956 0.056352746 -0.081683554 -0.0069248974 0.10114862
-0.113184005 0.07512998 0.071076855 0.06740586 -0.020966921 -0.1965768 -0.06393914 0.05713862
-0.07506814 -0.0128361685 0.027374294 -0.07750051 -0.11081951 -0.084399775 0.051607102 0.001974013
0.04991665 0.089308165 -0.009551652 -0.035137855 0.052445374 -0.03830453 -0.051822696 -0.05786638
-0.049147807 0.012619521 0.056843244 -0.04805934 -0.05905371 -0.06581346 0.037172437 -0.0726764
-0.09378454 0.07913346 0.0044496055 0.05456309 0.07527145 0.067067005 -0.06644907 -0.07074916
0.06144454 -0.038160503 0.022526395 0.005975651 -0.08286153 -0.088810965 0.07256476 0.039463136
0.03726223 0.08388645 -0.10669129 0.006898614 0.030348165 -0.013864342 -0.08977882 -0.009406028
-0.059106957 0.062371768 -0.07732667 0.02647877 -0.024682796 -0.0033154176 -0.008590262 -0.06794603
-0.07991083 -0.06539599 -0.0711641 0.010598978 -0.05120904 0.027853671 -0.09374254 0.03372917
-0.001552427 -0.040206306 -0.029963436 0.024057778 -0.05615809 -0.018870568 0.08882661 0.07793036
-0.010425265 -0.053130534 0.033155177 -0.041041747 0.064427815 0.015407487 0.059698414 -0.012201776
0.051429894 0.01516618 -0.0020284185 0.058481436 -0.05471619 -0.07788037 -0.027278673 0.04277293
-0.08914078 -0.048909437 -0.082992926 0.047353372 0.07125766 0.036621235 -0.09875064 0.009939589
-0.005845738 -0.078918055 -0.028082406 -0.00088928797 -0.009642064 -0.055488143 -0.06939399 -0.06027566
-0.02892052 -0.08122762 -0.08381405 -0.060472667 0.064896554 -0.07323608 0.04854917 0.037555616
0.02626956 -0.011294807 0.022606615 -0.08250883 -0.004510722 -0.13940911 0.05269024 -0.09694653
00000000: dcdf 933c ab9d a6bb fdfb 92bd 132c 483c
00000010: dde6 49be dfbd a1bc 91d0 81bd aa81 e2bc
00000020: 9190 71bb bd6b 9bbd 364e 0dbd 23ea 94bc
00000030: 5f12 a0bd 7392 d83c d86a 203d d5ff 583d
00000040: 8778 77bd 0d43 a8bd 2a13 0bbd 4aee 60bd
00000050: f7b8 d2bb 6415 133c 10d4 a0bd e773 89bd
00000060: 4384 b33d d6b9 2eba bbcb 9cbc 7841 733d
00000070: e973 48bd c9a2 51bd e211 aa3d d6d7 e5bc
00000080: 806c 143d d683 033d 2be3 9bbd 6a6a 013e
00000090: 85ab 693d aca7 c63c bc44 3bbc 4a8b 7e3d
000000a0: e872 d7bd cef9 2c3d 6eaa 23bd 3ac6 123b
000000b0: 57ab 0a3d 5c58 623d dcc6 43bc c7e1 12bc
000000c0: f15d 5bbd f664 8bbc 076a f53c a041 75bd
000000d0: 713c 503d a34d c1bc 9ea7 2fbd 9fdd acbd
000000e0: 3b8c 46bd bc11 c4bc f60b 063e b712 9c3d
000000f0: c203 02bd bad0 4a3d 2b8d 243c 0319 b9bd
00000100: 43cc 213d 3759 79bb 2d8c d939 e574 883d
00000110: 1139 44bc 044c cd3d 20d7 bf3d bb55 6fbd
00000120: 7932 833d 0b6b b63d ee9b 8e3d 4e20 0abc
00000130: 6337 143d 9a8a 2abb 6eea 863c 4612 923d
00000140: cafe 4c3d b2d7 13bd fb0e 4e3d 6644 e63d
00000150: f53c 6cbd 447d 223d 2bfa 64bd 2fdd 15bd
00000160: ffd1 d13a 91b7 b43d 58fa 1abd 9f78 12bd
00000170: f66a 923d 0009 1f3c 7ad4 6b3d 0f7d eebc
00000180: 2333 9bbd d055 c1bc 3c7b 9abd 70b5 7c3d
00000190: 715f 213d 3ec2 54bc 2dec c23d 1f25 e73d
000001a0: c13e 40bd 7362 ff3c 23ac babc ce46 8ebc
000001b0: 371d 893c e0b0 073e 5b3d 54bd 21af 9ebd
000001c0: cecd 7ebc d399 97bd 378f 153c 5223 bdbd
000001d0: 5eb7 683d 871a d3bd 83e9 543c 45c5 133d
000001e0: 2d78 fabb 5811 66bd 5fed a5b9 6f20 8b3d
000001f0: 23d2 663d b549 a7bd 40ea e2bb 0227 cf3d
00000200: 04cd e7bd bfdd 993d be90 913d 150c 8a3d
00000210: d2c2 abbc 6e4b 49be 86f2 82bd 300a 6a3d
00000220: 53bd 99bd cb4e 52bc 0e40 e03c 96b8 9ebd
00000230: 57f5 e2bd cad9 acbd f861 533d 715e 013b
00000240: 6775 4c3d 33e7 b63d 887e 1cbc b6ec 0fbd
00000250: f6d0 563d 36e5 1cbd 0944 54bd 4c05 6dbd
00000260: 364f 49bd 1bc2 4e3c 76d4 683d dfd9 44bd
00000270: 4ee2 71bd 35c9 86bd 2042 183d 5dd7 94bd
00000280: 1c12 c0bd b910 a23d ffcd 913b 8c7d 5f3d
00000290: eb27 9a3d 6d5a 893d 7316 88bd f0e4 90bd
000002a0: 45ad 7b3d 304e 1cbd 4689 b83c 65cf c33b
000002b0: 4eb3 a9bd 86e2 b5bd d59c 943d 19a4 213d
000002c0: 48a0 183d a9cc ab3d f780 dabd c50d e23b
000002d0: b79c f83c 4427 63bc f5dd b7bd be1b 1abc
000002e0: 231a 72bd 8a79 7f3d 725d 9ebd 01ea d83c
000002f0: 9333 cabc 7a47 59bb 2cbe 0cbc 4a27 8bbd
00000300: 4aa8 a3bd 55ee 85bd 7cbe 91bd 56a7 2d3c
00000310: 92c0 51bd 622d e43c 17fc bfbd 9927 0a3d
00000320: ce7a cbba 5eaf 24bd e175 f5bc d114 c53c
00000330: 0606 66bd 7396 9abc baea b53d f499 9f3d
00000340: bbce 2abc 679f 59bd b9cd 073d 641b 28bd
00000350: bbf2 833d af6f 7c3c 5386 743d f5e9 47bc
00000360: 27a8 523d 927b 783c 37ef 04bb 3b8a 6f3d
00000370: 151e 60bd be7f 9fbd 8677 dfbc ab32 2f3d
00000380: 718f b6bd 4355 48bd 32f8 a9bd 9cf5 413d
00000390: 89ef 913d 2600 163d c73d cabd a8d9 223c
000003a0: 9b8d bfbb ca9f a1bd 130d e6bc 1b1f 69ba
000003b0: bff9 1dbc 8947 63bd 701e 8ebd 9ce3 76bd
000003c0: baea ecbc ab5a a6bd b3a6 abbd 30b2 77bd
000003d0: 7ce8 843d ccfc 95bd 7fdb 463d ebd3 193d
000003e0: 4333 d73c db0d 39bc 8231 b93c 64fa a8bd
000003f0: aece 93bb 43c1 0ebe b9d1 573d e78b c6bd

bias f4 [128]
0.026998162 -0.0011058296 -0.04096704 -0.073361166 -0.08230772 -0.08712156 0.008301386 0.01797718
0.011564025 0.04656314 -0.0040246705 -0.0054200767 0.050457932 -0.03290586 0.050759017 -0.0431049
-0.01575321 0.040246904 -0.037239708 0.013076583 0.035860214 -0.03538343 0.04542901 0.017741142
-0.036435034 -0.10030046 -0.026714701 -0.090046406 0.05414598 0.04942917 -0.03196855 -0.024913989
-0.03160593 -0.04102337 -0.030485773 -0.013329047 -0.026235096 -0.0011441662 0.04907653 -0.0039106887
0.038622998 -0.09818494 -0.06675103 -0.035636034 -0.028202005 -0.008548886 -0.07444766 0.016594475
-0.019689564 -0.076432735 -0.0728154 -0.020565026 0.04128055 -0.0331677 0.06630169 0.041485026
0.02317196 -0.054299533 0.08165262 0.033679176 0.07150815 -0.027280381 -0.01157679 -0.0891731
-0.0016247854 -0.04031308 -0.046043307 0.058833413 -0.037556853 -0.08778938 0.0010076922 0.05449429
-0.054687373 0.026054006 -0.0115466295 -0.017340217 0.012407914 -0.007824231 -0.020026062 -0.020643724
-0.028495664 -0.04057871 -0.072523244 -0.009351355 -0.10058404 -0.07982413 -0.000192968 0.0020393596
0.01601955 -0.031641994 0.071427666 0.046488296 -0.006093358 -0.059932806 -0.072110504 -0.06375901
-0.023006018 0.03292672 -0.022558095 -0.019145764 0.014568806 -0.022802712 -0.015545951 0.077164955
-0.03217555 -0.096842565 0.05524864 -0.014485463 -0.09426637 0.040922835 0.037411395 -0.0021404484
-0.04513679 -0.019472972 -0.01568092 -0.0010885362 0.050414387 -0.05923267 0.030756455 -0.018935068
-0.05116036 -0.11698711 0.04328658 -0.010718098 -0.0257249 0.026451157 -0.030717637 -0.007319925
00000000: 402b dd3c 7cf1 90ba 0ecd 27bd 613e 96bd
00000010: f390 a8bd ca6c b2bd 8902 083c e144 933c
00000020: 0977 3d3c feb8 3e3d 62e1 83bb e69a b1bb
00000030: faac 4e3d 4cc8 06bd b0e8 4f3d c38e 30bd
00000040: e00c 81bc f0d9 243d aa88 18bd 2a3f 563c
00000050: 29e2 123d 37ee 10bd c513 3a3d df55 913c
00000060: e73c 15bd 546a cdbd cad8 dabc 406a b8bd
00000070: 2dc8 5d3d 3e76 4a3d 74f1 02bd 6c18 ccbc
00000080: 3875 01bd 1f08 28bd 4dbd f9bc 1362 5abc
00000090: fcea d6bc d9f7 95ba 7904 493d 3c25 80bb
000000a0: 2633 1e3d 3015 c9bd c4b4 88bd 17f7 11bd
000000b0: e407 e7bc a010 0cbc 0478 98bd 23f1 873c
000000c0: 024c a1bc c488 9cbd 3e20 95bd fc77 a8bc
000000d0: cb15 293d dbda 07bd 2ec9 873d 34ec 293d
000000e0: 1fd3 bd3c 3069 5ebd 7d39 a73d 2df3 093d
000000f0: dd72 923d 1b7b dfbc 94ac 3dbc 63a0 b6bd
00000100: c0f6 d4ba 541f 25bd e897 3cbd 4efb 703d
00000110: 37d5 19bd ebca b3bd 8a14 843a 6835 5f3d
00000120: deff 5fbd 366f d53c 132e 3dbc 120d 8ebc
00000130: 904a 4b3c 3431 00bc b20d a4bc 071d a9bc
00000140: bd6f e9bc dd35 26bd 1187 94bd 6d36 19bc
00000150: 01ff cdbd d57a a3bd 7457 4ab9 c7a6 053b
00000160: 6e3b 833c 099b 01bd ab48 923d 836a 3e3d
00000170: cbaa c7bb 1a7c 75bd acae 93bd 1594 82bd
00000180: 1e77 bcbc 2bde 063d c1cb b8bc 94d7 9cbc
00000190: 00b2 6e3c c1cc babc 72b4 7ebc a908 9e3d
000001a0: 82ca 03bd 6555 c6bd 664c 623d 6f54 6dbc
000001b0: ba0e c1bd b49e 273d b13c 193d c446 0cbb
000001c0: 5be1 38bd c885 9fbc 4675 80bc 37ad 8eba
000001d0: 517f 4e3d f59d 72bd f6f4 fb3c b71d 9bbc
000001e0: 878d 51bd f096 efbd 454d 313d f69a 2fbc
000001f0: 07bd d2bc 19b0 d83c 8ea3 fbbc fbdb efbb

weight f4 [2, 128]
-0.036501016 -0.03338422 0.10439245 -0.03790514 0.07468414 -0.003917238 0.0020290886 -0.04151178
0.0012983382 -0.016267465 -0.033462305 0.10463795 -0.025403203 0.035065696 -0.0020410335 0.044311713
0.24257667 0.06401777 0.13964787 -0.05883228 -0.041274015 0.09788361 0.17694108 -0.014171467
0.121368736 0.04238026 0.11127346 -0.0054579997 -0.04658431 -0.033770133 -0.080311924 0.3624234
0.023441773 -0.04645897 0.039172776 0.3054073 0.25090647 0.06396321 -0.05215777 0.12351251
-0.07591735 -0.056429435 -0.040030412 0.40501362 0.022380685 0.13999271 0.029644381 -0.013108965
0.30696753 0.06316508 0.023830367 -0.050515104 -0.044120997 0.03174065 0.09617271 0.07381692
-0.09232866 -0.016297342 0.029717613 -0.045365978 -0.06682082 0.23547296 0.17195368 -0.06038631
-0.027708262 0.18024541 -0.010467807 0.05775678 0.039202217 -0.026937567 0.33837923 -0.07110766
-0.026734075 0.26313224 0.017736128 0.38597277 0.28906795 0.02966192 0.26714566 0.22639017
-0.015916334 -0.016403677 -0.0023127687 0.065917626 -0.055060424 0.0433742 0.13726357 -0.034847297
0.19323708 0.0035183062 -0.033212468 -0.04879342 0.1899682 -0.027516726 -0.008900907 -0.020506924
0.20782362 0.10703006 0.13106439 -0.018475492 -0.031742476 0.40006658 0.08194457 -0.05758984
0.19319387 0.021797715 0.057760008 -0.0042727143 -0.018775992 -0.08184465 0.18473606 -0.017698055
0.45023224 0.04253375 0.33340055 0.035929605 -0.034708913 0.2794022 -0.00873125 0.054624405
0.07987375 -0.07390447 0.007699172 -0.081380576 0.17790087 -0.000557656 0.020289643 -0.023955155
-0.030929351 0.031623956 0.03675462 0.022003269 -0.05881183 -0.002211783 -0.04390207 -0.03480775
-0.021691557 -0.023500035 -0.06625334 -0.04591412 -0.02651454 -0.06645352 -0.048594188 0.0371664
-0.00038164272 -0.02339124 0.025364572 -0.02055964 -0.024196437 -0.027095005 -0.00036379794 -0.07053332
-0.0006264383 -0.008433564 0.03439163 -0.03292398 -0.023342106 -0.022813722 0.042132977 0.00045037517
0.047248513 0.06144699 0.042069927 -0.0003994123 0.00017112671 0.04674277 -0.02100833 -0.006606847
-0.030045856 0.00082967064 0.031389795 0.00023420122 0.034849547 -0.00067137834 -0.03646317 -0.032780755
-0.00011112341 0.03510094 -0.053104546 0.008153578 -0.026406797 0.038477644 -0.039446507 -0.028071953
0.040468916 -0.02776775 -0.02886703 -0.028815735 -0.022936478 -0.0004218885 -0.00078033644 -0.016736576
0.023740526 -0.0007454536 0.07917495 -0.021893697 -0.022211932 -0.016596692 0.00037225123 -0.02016056
0.058708 -0.0007036191 0.02546873 -0.00031533648 0.00021748507 0.047809057 0.00015080965 -0.00023546428
0.027810834 0.054687876 0.027455913 -0.030963168 -0.06456516 -0.020102942 -0.014098729 0.03687767
-0.00013874183 0.07284066 -0.021002952 -0.019688131 -0.0018252666 -0.028122166 -0.093139194 0.07819802
-0.00013679956 -0.010598214 -0.0004637857 -0.01680154 0.040145762 0.00028349424 0.05892879 -0.022800047
-0.00014406173 -0.041882247 -0.030307408 0.040302947 -0.03279415 -0.02268109 -0.00075847213 -0.027217155
-0.00028398255 0.049608734 -0.00021780375 -0.02594453 -0.059736636 -0.00021209713 -0.021771293 0.02908318
0.044332996 0.004908583 -0.022768166 0.026372649 -0.00018405615 -0.030098695 0.05812788 0.03263027
00000000: 1782 15bd e4bd 08bd b5cb d53d 6c42 1bbd
00000010: 00f4 983d 2d5c 80bb 75fa 043b 4208 2abd
00000020: 002d aa3a 5943 85bc c50f 09bd 6c4c d63d
00000030: 611a d0bc 0ca1 0f3d dcc2 05bb 3380 353d
00000040: 0566 783e c01b 833d daff 0e3e 1efa 70bd
00000050: f10e 29bd 3477 c83d 0b30 353e 712f 68bc
00000060: 2c90 f83d ec96 2d3d 57e3 e33d 05d9 b2bb
00000070: 30cf 3ebd 8d52 0abd 947a a4bd 8f8f b93e
00000080: f608 c03c c34b 3ebd a273 203d 585e 9c3e
00000090: d076 803e 25ff 823d 63a3 55bd 20f4 fc3d
000000a0: 8e7a 9bbd 8d22 67bd eef6 23bd f25d cf3e
000000b0: b357 b73c 405a 0f3e c6d8 f23c fcc6 56bc
000000c0: d92a 9d3e b25c 813d e737 c33c ede8 4ebd
000000d0: 38b8 34bd 7c02 023d 33f6 c43d 532d 973d
000000e0: cf16 bdbd 0182 85bc 5a72 f33c add1 39bd
000000f0: 5bd9 88bd d31f 713e a014 303e a357 77bd
00000100: 70fc e2bc 4192 383e 2a81 2bbc 6092 6c3d
00000110: 8192 203d 2cac dcbc 0b40 ad3e e5a0 91bd
00000120: 6b01 dbbc 45b9 863e 5b4b 913c 399e c53e
00000130: b700 943e 8efd f23c 51c7 883e d3d2 673e
00000140: f962 82bc 0161 86bc d291 17bb d2ff 863d
00000150: 0a87 61bd 25a9 313d d28e 0c3e 0abc 0ebd
00000160: f1df 453e 6293 663b cc09 08bd 9cdb 47bd
00000170: 0687 423e c26a e1bc 1cd5 11bc 23fe a7bc
00000180: b7cf 543e 9332 db3d be35 063e ea59 97bc
00000190: 6604 02bd 87d5 cc3e 8ed2 a73d 53e3 6bbd
000001a0: 9dd4 453e 1f91 b23c c295 6c3d 2002 8cbb
000001b0: 1cd0 99bc 2b9e a7bd 732b 3d3e 83fb 90bc
000001c0: d784 e63e df37 2e3d 7ab3 aa3e ec2a 133d
000001d0: ef2a 0ebd ce0d 8f3e 840d 0fbc d7bd 5f3d
000001e0: d994 a33d 3a5b 97bd 5649 fc3b dcaa a6bd
000001f0: a52b 363e a92f 12ba 7736 a63c 9a3d c4bc
00000200: 8d5f fdbc 1f88 013d 038c 163d 3340 b43c
00000210: ace4 70bd 90f3 10bb a8d2 33bd 9292 0ebd
00000220: 7eb2 b1bc 2583 c0bc d5af 87bd 7210 3cbd
00000230: 0535 d9bc c818 88bd b30a 47bd cc3b 183d
00000240: 3817 c8b9 fc9e bfbc 5dc9 cf3c b16c a8bc
00000250: 9b37 c6bc 58f6 ddbc 22bc beb9 c673 90bd
00000260: 9037 24ba ee2c 0abc 3dde 0c3d 4cdb 06bd
00000270: f237 bfbc d8e3 babc a193 2c3d 5520 ec39
00000280: a887 413d d7af 7b3d 8451 2c3d 3668 d1b9
00000290: 7a70 3339 5975 3f3d a919 acbc 407e d8bb
000002a0: ba22 f6bc 417e 593a 9692 003d e993 7539
000002b0: 66be 0e3d 70ff 2fba 685a 15bd 1d45 06bd
000002c0: ed0a e9b8 01c6 0f3d 2784 59bd 9696 053c
000002d0: 1153 d8bc bc9a 1d3d a992 21bd 27f7 e5bc
000002e0: bcc2 253d 3179 e3bc 8d7a ecbc fa0e ecbc
000002f0: 48e5 bbbc ea30 ddb9 7e8f 4cba 251b 89bc
00000300: 7e7b c23c 8b6a 43ba 7a26 a23d 695a b3bc
00000310: ccf5 b5bc c9f5 87bc b72a c339 c227 a5bc
00000320: cd77 703d 1473 38ba cca3 d03c bf53 a5b9
00000330: b40c 6439 6ed3 433d a822 1e39 f6e6 76b9
00000340: 8cd3 e33c 6500 603d 39eb e03c 78a6 fdbc
00000350: bd3a 84bd edae a4bc 5bfe 66bc 0a0d 173d
00000360: 3a7b 11b9 7c2d 953d 620e acbc 0149 a1bc
00000370: c93d efba 7560 e6bc c3bf bebd 4926 a03d
00000380: da71 0fb9 22a4 2dbc 4328 f3b9 62a3 89bc
00000390: e26f 243d f4a1 9439 515f 713d 2ac7 babc
000003a0: 470f 17b9 b88c 2bbd 3e47 f8bc b414 253d
000003b0: 2953 06bd b1cd b9bc 34d4 46ba 83f6 debc
000003c0: 7ee3 94b9 8732 4b3d 4062 64b9 9f89 d4bc
000003d0: 67ae 74bd 6466 5eb9 b659 b2bc d93f ee3c
000003e0: 8496 353d 2ed8 a03b 4e84 babc 740b d83c
000003f0: 32ff 40b9 8a91 f6bc 8017 6e3d 51a7 053d

bias f4 [2]
0.09161614 0.04095982
00000000: 3ea1 bb3d 7cc5 273d
