model.pt (torch, 110068 bytes, 6 tensors)

weight f4 [128, 75]
00000000: b531 5a3e 45be d53f c167 2d3d f2a2 19be
00000010: dce2 e1bc 9346 613c 97f0 07bd 2273 c93d
00000020: e8c3 d43d c297 833d 88a2 c1bb 0939 2dbd
00000030: 13ae e73d b595 2c3d 8ab1 a03d d51d cbbd
00000040: 5f25 e4ba 54f6 243d aea0 953c db10 a1bd
00000050: 6d92 adbd dfdd f33d 0fed dabd 4ed8 a3bd
00000060: 16a3 f4ba 3780 363e c5d1 d93f c4bf ab3d
00000070: c2b0 e0bd 32c0 1fbe 4f3e 92bd 33e0 ddbc
00000080: 608e 933d a376 40bc 914c db3d 7b3b 2ebc
00000090: 2c24 af3d 88c4 b93d 8608 c6bd e18b 0b3e
000000a0: 53e4 1fbd 2649 18bd 3698 6f3c c81d 413d
000000b0: c0c6 c3bb 1d7f 9abd 07a2 de3d bdad 8b3c
000000c0: 0549 0fbe 403f 11be 5203 a3bd 471e cb3f
000000d0: 6a02 733d f2dd 6e3f e813 b1bc ef31 d5bd
000000e0: 6072 b93d 938f 953c 7480 973d 3cfa cabd
000000f0: 3455 4dbd c619 aabd 2f39 2bbd 662f e73d
00000100: 8c65 0e3e f554 35bd 484e 993d aedb e53c
00000110: 071c 263d d004 dcbd 4d45 a7bd 6e68 a93d
00000120: e0e0 a8bd 9904 ccbd 5523 54be 32b6 fabe
00000130: 3336 7c40 f672 3fbe 6bee b9bd acd3 12be
00000140: eeb6 1c3e c163 493d f577 ae3d c773 06bc
00000150: 306b ac3c ce38 98bd 1d5a dbbc 5dae 183e
00000160: 5223 ab3d 3aa4 e23e 4223 e0bd cf6b 573d
00000170: e473 4d3d 9231 333c 16e6 7dbd 004f 4ebe
00000180: b0f6 b13d 5f30 90bd 2588 b7bd b065 7bbc
00000190: b93e b1be ed7c 8240 9b30 3cbe 334b 25be
000001a0: 802a 7e3d 5308 a5bb cc9c fe3d 8503 103e
000001b0: 0965 8c3c 31e2 d6bb 923f 27bd 7615 cc3c
000001c0: 3177 da3d 0eeb 68bd ae1f be3e c75f c7bd
000001d0: f98b 453c 1851 793d d1ce 063e a3d5 02bd
000001e0: 9e6b 28be 34bb 2d3e f55e c33d bd0c 3ebe
000001f0: 782b 83bd ec8f ccbd 0aa2 8240 8754 f8bd
00000200: b8f6 8dbf 3c74 083d f290 973d 0203 0c3e
00000210: a404 de3c 6342 0fbd 8b39 de3c 09d3 933d
00000220: 5cf8 b1bc 047d 9bbd a7e1 cdbc 320d 083f
00000230: c82e 0fbe f39f bbbd 8822 58bc 7c9b 7dbd
00000240: 59cf dbbd b4cf 2fbe 7580 f33d f35c bc3d
00000250: 0a29 193c dc53 dfb8 7db2 dfbd af22 9d3d
00000260: a052 a33d 8c2a 423d 72ea 86bc 296d cc3d
00000270: 7f8d adbd e4c3 823d 9361 e8bd 40e7 35bb
00000280: 68ef a43b e2bb a7bd 1f78 3dbd 2ecc 9f3c
00000290: d68a c5bc b32e e7bd 11c1 d8bd da10 953d
000002a0: 8096 393d 70b7 cdbd 5a15 d3bd 8677 b93d
000002b0: 0bd3 d1bd 76e5 f6bc 4fc3 b8bd d246 4f3c
000002c0: b4c5 0e3c 1a9b f7bc dec6 ce3d 1189 8ebd
000002d0: 13bc c2bd 08bf babc ac78 53bd a689 3b3d
000002e0: 6c50 b6bd 5654 323d 4583 8cbc 9c1f 12bd
000002f0: b018 b9bc 340a 95bd 7111 4dbd 5b26 c53b
00000300: fbe1 2abd b142 913d 3a66 ae3c 9b54 9b3d
00000310: 95a2 973d 8eae 3cbc 4c72 8ebd 4edb ff3c
00000320: 743b 26bd 828d a13d 4f1b bdbd cc2c c5bd
00000330: cbde 4c3d 91ca 9e3d 3d1e 5cbd cb31 51bc
00000340: 6ae0 0cbd b166 15bd 0bd6 f2bd 0c42 483c
00000350: fcfe 61bd 8c04 ae3d e5fe cabd dd78 a23c
00000360: 7678 c6bd a565 dc3b 90bb af3c ec66 df3c
00000370: c1b9 a03c 7ce5 dbbd e958 5a3d dafd 85bd
00000380: 03ef 053d cef4 133e 48dc 6fbe 74a0 5d3c
00000390: f2ea 63bc 5ee8 e5bc 1aaa 86bd a421 08be
000003a0: 81de 4a3d 56e0 723d 8754 aabd 9324 f5bd
000003b0: cdae 553d d694 cbbd 22fe cc3c 8859 90bd
000003c0: 6f44 ea3c 1f1d cebd e3e3 d1bd 0877 d23c
000003d0: 9219 803d 2d24 c939 2c37 99bd fa3c bcbd
000003e0: c90d 25bd e4ba 54bd 86d5 25bd 3671 61be
000003f0: e7a7 cdbd 2169 483b c9f2 313d dfd3 d73c
0.21308024 1.6698691 0.042335276 -0.15003565 -0.027573995 0.013749736 -0.03318843 0.09836413
0.10388929 0.0642543 -0.005909268 -0.04229072 0.11312499 0.04213496 0.07846363 -0.099177994
-0.0017406157 0.04027398 0.018265095 -0.07864543 -0.08475194 0.11907553 -0.106897466 -0.08000241
-0.0018664326 0.17822348 1.7017142 0.08386186 -0.10971214 -0.1560066 -0.07140791 -0.027084446
0.0720489 -0.011747035 0.10707963 -0.010634298 0.08551821 0.090706885 -0.096695945 0.13627578
-0.039036106 -0.037179135 0.014623692 0.047147542 -0.0059746206 -0.07543776 0.10870748 0.017050618
-0.13992698 -0.14184284 -0.07959618 1.5868615 0.059328474 0.9330741 -0.021615937 -0.10409915
0.090550184 0.018256938 0.07397547 -0.0991101 -0.050130084 -0.08305697 -0.04180258 0.112883374
0.13905925 -0.044270474 0.07485634 0.028058853 0.040554073 -0.107431054 -0.08167515 0.082718715
-0.082460165 -0.099618144 -0.20716603 -0.4896713 3.940808 -0.18696198 -0.09078678 -0.14338559
0.15304157 0.0491674 0.08518974 -0.008206314 0.021047205 -0.0743271 -0.026776368 0.14910264
0.08356346 0.4426592 -0.10944225 0.05259305 0.05015935 0.010937111 -0.061987005 -0.20147324
0.0868963 -0.07040476 -0.089615144 -0.015344068 -0.34618166 4.0777497 -0.18377917 -0.16141967
0.06205225 -0.0050363927 0.124322504 0.14063843 0.017138021 -0.006557726 -0.04083211 0.024912577
0.10667265 -0.05686479 0.37133545 -0.09735065 0.012057298 0.060868353 0.13164832 -0.03194202
-0.16447303 0.16965944 0.09539596 -0.18559547 -0.064047754 -0.099883884 4.08228 -0.12125497
-1.1090918 0.033313975 0.07400693 0.13673022 0.027101822 -0.03497542 0.027127048 0.07217986
-0.021724872 -0.07592204 -0.025132013 0.53145134 -0.1398269 -0.09161367 -0.013191827 -0.06191586
-0.10732908 -0.17169076 0.118897356 0.09197416 0.009348163 -0.00010649089 -0.10922716 0.07672631
0.07974744 0.047403857 -0.016469214 0.09981758 -0.08474254 0.063850194 -0.11346736 -0.0027756244
0.0050334223 -0.08190133 -0.046257135 0.01950654 -0.024114054 -0.11288204 -0.105836995 0.07278605
0.045309544 -0.100447536 -0.10306807 0.090560004 -0.102453314 -0.030138712 -0.09021627 0.012651162
0.008714128 -0.030225325 0.10096525 -0.06959737 -0.095085286 -0.022796169 -0.051628754 0.04578557
-0.08902058 0.04353746 -0.017152438 -0.035674676 -0.02259478 -0.07277337 -0.05006546 0.006016535
-0.041719418 0.070927985 0.02128898 0.075844966 0.07404057 -0.011516226 -0.06955394 0.031232502
-0.040584043 0.078883186 -0.09233724 -0.09627685 0.05001716 0.0775348 -0.053739775 -0.012768219
-0.034393705 -0.036474887 -0.11857232 0.012222778 -0.055174813 0.08496961 -0.099118985 0.019833023
-0.09690945 0.006725984 0.021451741 0.027270757 0.019619824 -0.1073713 0.053307448 -0.06542559
0.032698642 0.14448854 -0.23423874 0.013527025 -0.013910996 -0.028064903 -0.06575413 -0.13294083
0.049528603 0.059295975 -0.083169036 -0.119698666 0.052168656 -0.099404976 0.025023524 -0.07048327
0.028597085 -0.10064148 -0.10248544 0.025691524 0.06254877 0.0003836466 -0.07481226 -0.09191318
-0.04029635 -0.051936045 -0.040486835 -0.22015843 -0.100417905 0.003058024 0.04344443 0.026346145

bias f4 [128]
00000000: 1e95 42bd 3c12 d2bb aa45 23bd 5828 4dbc
00000010: ea93 60bb febc 4dbb ef9d e8bd 9323 883d
00000020: 377b c33d 8dbb 49bd 72ca 13bd 277b abbc
00000030: a5e1 f83d b0d0 423d 370b 1e3e bd33 7b3d
00000040: 920a a0bd fc05 b5ba dca3 7f3d 80d8 9a3d
00000050: 5a85 c0bd 7073 243b 8daa 143d 5226 d9bd
00000060: 29f2 30bd 18d3 983d 30a1 debd 9a10 933d
00000070: 5854 d4bc f5c8 a1bc 84cd aabd 61d0 ff3c
00000080: ddeb 62bb 4283 03be c671 653d 480d 37bd
00000090: 1495 81bd a163 cfbd 5d81 ab3d e3a2 f7bd
000000a0: dbf8 8e3d 8aca 81bc 528b 3eba 774b 91bd
000000b0: 5c54 063d 3624 00bd 1b1b aebc 189a 94bd
000000c0: 054d f4bd 8aff 133e c508 363d 3fb4 eb3d
000000d0: f767 563d bc91 2fbc e01d d3bb f1c9 70bd
000000e0: 02b3 bebd 2997 2fbd c9a3 cabd 2f49 afbc
000000f0: 7fb4 3dbc c0bd 9bbd 33d1 edbd ecae 5dbd
00000100: 2ade cc3d ee2c 0c3d b8c7 67bc e05c 01be
00000110: 95bc 153d 8541 0abd 34b3 97bd f50e 60bd
00000120: f726 61bc 5ae9 273d 806a 9bbd f89a 08be
00000130: 93a3 46bc 54fc bdbd 9e4f 803c 4f69 413b
00000140: 90e2 ddbd fdad bbbd ebc0 543d 8869 24bb
00000150: 4b43 04bd 2104 4e3d 7372 c63c d1ef b33b
00000160: 63fd ee3b 54af 2dbd 16cf 943d 574f e1bc
00000170: 7f70 d7bc afca b43b c4a8 923d 7bcd a0bb
00000180: 3f16 fbbb d638 b9bc a281 dcbc 4c4c c0bd
00000190: 12f3 74bd a68b fcbd 860b 28ba 23d0 cabd
000001a0: 393e 35bd 7788 5b3c bf11 b6bc 0506 9cbd
000001b0: 7f19 083d 4e21 e1bd 5ae3 e3bd 2e5c 433d
000001c0: 74c5 07bd add3 9ebd 2a9a 263d 8030 46bd
000001d0: baae 32bd 8dbf 0abd 5075 c33d e23a f43c
000001e0: 1fe2 523d 8edf afbd cea6 f4b9 4cae 193d
000001f0: 0182 4db9 4376 dbbd 72ab 13bd e1b3 f23d
-0.04750549 -0.006410865 -0.03986136 -0.012521826 -0.003426785 -0.0031393166 -0.113582484 0.0664741
0.09544986 -0.049251128 -0.03608174 -0.020932747 0.12152413 0.0475623 0.15433966 0.06132864
-0.07814516 -0.0013810988 0.062412128 0.07560825 -0.09400435 0.002509322 0.036295462 -0.10603012
-0.043199692 0.07462138 -0.10870588 0.07180901 -0.025919124 -0.019749144 -0.0833998 0.031227292
-0.0034625449 -0.1284304 0.056016706 -0.0446904 -0.063272625 -0.101264246 0.083742835 -0.12091615
0.06981059 -0.015843648 -0.0007268685 -0.07094472 0.032795295 -0.031284533 -0.02125316 -0.072559536
-0.11928753 0.14452949 0.044441957 0.115089886 0.052345242 -0.010715898 -0.0064427704 -0.058786336
-0.09311487 -0.042868767 -0.09894521 -0.021397201 -0.011578678 -0.07604551 -0.11612167 -0.054121897
0.10003312 0.034222536 -0.014146738 -0.12633085 0.0365568 -0.03375389 -0.07407227 -0.054701764
-0.0137422 0.040994026 -0.07588673 -0.13340366 -0.01212396 -0.092766434 0.015662964 0.0029512232
-0.10834229 -0.09164045 0.051941793 -0.0025087316 -0.032290738 0.050296906 0.024224496 0.005491235
0.0072933896 -0.042403534 0.07266061 -0.027503652 -0.02629876 0.005517326 0.07161096 -0.0049073077
-0.007662564 -0.02261011 -0.026917282 -0.093895525 -0.059802122 -0.12331323 -0.00064104085 -0.0990298
-0.044248793 0.013399235 -0.022225259 -0.07618336 0.03322744 -0.109926805 -0.11127348 0.04769533
-0.03314729 -0.07755218 0.040674366 -0.048386097 -0.043623663 -0.033874083 0.0954386 0.029813234
0.051485177 -0.085875615 -0.00046663586 0.037519738 -0.00019598754 -0.10715916 -0.036052175 0.118507154

weight f4 [128, 128]
00000000: d476 6dbd 9304 3dbd d7bd 8f3d ede8 413d
00000010: b3a5 f1bc 5b25 cbbd 0908 57bd 724d 6ebd
00000020: 2c92 9abd e7f3 b3bd 3a98 7d3c 7bef c2ba
00000030: 1708 973d a9fd 623c c053 85bd 9d85 8cbd
00000040: fd02 a53d 1b26 b43d a9d5 c13c 93cf f03b
00000050: eab2 a33d 755f ebbc 6954 a5bd 1756 c6bc
00000060: 060a 2fbe c2f2 93bd 5892 cdbc 22b6 b3bb
00000070: 5f43 83bc 9227 03bd b9ef 193d 9d01 2e3d
00000080: 080e 41bc bd86 453d e1be 54bd bd83 ce3c
00000090: 68aa 603c f6dc bfbc 2ffb 92bd 8e18 243d
000000a0: fb8e 693d 2da2 6cbd d0d5 9d3d c845 83bc
000000b0: 1f31 f63c 2a92 d2bc 3ca2 603d deeb e73c
000000c0: b566 5fbd 317a 813d 12a2 133d 29c4 c1bc
000000d0: 8975 dbbd 2a18 1a3d 6289 233d 53ae b8bd
000000e0: 2b5d 5d3d baaf 6cbd 2446 0bbd 772d 483d
000000f0: 4c2c 1fbc 4063 1fbd 2d6b 18bb 4bb2 a23c
00000100: 0edd 05be 4edb 513d 0f82 1dbc 59ff 323d
00000110: 214e 18be c55b b4bd 86c6 8e3d 041d 8dbd
00000120: bbe3 743c 5691 9d3d 41dc 94bd 0b80 463a
00000130: 9369 abbd 7c51 ac3c 6724 49bc 9e78 82bd
00000140: bffe cabd 57f1 92bd 02f1 b2bd 3f41 a13c
00000150: 50da b0bc 325d 1c3c 2633 c8bd 9af2 1d3c
00000160: aaef babd c792 9bbd a76f cabd 697d 95bd
00000170: 9514 15bd 1bc4 4cbd 47f4 2abd 9e0b f4bb
00000180: a29b 83bd 133f 02bd baba 49bd 3c6e a93d
00000190: 924b 6d3d ff41 d0bc a24b aabd c9de dbbd
000001a0: 0d2b 933d b8a8 71bb 1ba3 6abc 83be fabc
000001b0: 3eca abbd c25e 773c fef8 39bd 42a3 f6bc
000001c0: 7ddc 73bd 3218 43bd 8473 76bd b263 19bd
000001d0: adfc b6bc e70f 543d ba2c d13d 5205 6e3d
000001e0: b21d 8fbc 1eb8 ebbc 9c3d e53a 9087 1cbd
000001f0: 74ee 7ebd 564e 84bd 8e6d 44bd 18b7 2dbc
00000200: 8d58 79bd e2e4 b93e fbab 2e3d b20c 8bbd
00000210: 1566 12bd 31f8 293d f47d 12be 8a9a 8cbc
00000220: e3d9 8abd 470c 663d 334b 983d f20a a1bd
00000230: cf23 db3b 6b9d 433d f1dc 79bd 9c66 143c
00000240: 8ad8 553d 1e4c 30bd 00df 423d 58b6 163e
00000250: bb6d 55bd 19e7 13bd 7a0e a8bc 52ae e8bc
00000260: 047a 7abd 9e16 83bc 7f88 873d 696e bdbd
00000270: 7d5b 95bd 29ed 98bc 2ffa 4d3c 7279 72bb
00000280: 7d3d 163d d111 913d 04ce a5bd 1006 893c
00000290: 3004 0b3d 5ca0 41bd 3f2a d83b 8831 8fbd
000002a0: c31e f4bd 25fa 80bd 02f1 553d 2259 17bd
000002b0: f9e4 b93d b9b5 753d 7d10 b03c c76c a1bd
000002c0: c099 1fbd 96fe b6bd a99c c63b a3e9 70bc
000002d0: a887 08bd 82f7 a13d 2553 993b ed5a 203d
000002e0: 336a 91bc 5a71 0f3d 9e97 ff3c 8ef4 b6bd
000002f0: 42ca afbd 295b f13c 6b95 a3bd 06e0 1b3d
00000300: 323b dbbd 83e0 8b3d 9d4a a93c 0d1e b8bd
00000310: 7209 febd 8b2d 8dbd 02ba 1a3d 0fc6 983d
00000320: bc5c a6bb 48a5 78bd 583e 9a3c ce84 4ebc
00000330: 573e 44bc b53c a03d 0de7 4c3d 9461 5c3a
00000340: 6a7d d63a 47a5 34bd a953 213d 34c0 c8bc
00000350: 751b 01bd d18b a3bc 8534 ac3d a197 6abd
00000360: 5c6e 4cbd 533a 4ebd e60e 9cbb 4874 90bd
00000370: c89d 42bc 25a0 523c e8bd 2c3d 50cd 73bd
00000380: 7799 933d 25cc 8e3c 83a8 23be 42bb 403b
00000390: 227e 6ebd 94ad 84bc 8117 71bc 2b5b ba3c
000003a0: 4bb0 743c 3c87 9b3d 6fcb 043d 5af9 8fbb
000003b0: b305 303c 368f a4bc 63ce 203c ad7d 043d
000003c0: ee9d 2a3d 945d c03c c28a b6bd 35f7 ebbd
000003d0: cfde b63b 066b 9d3d 792c 1bbe d280 1abe
000003e0: 5779 f2bd 803e 23bd 51b5 6b3c 6acb 8abc
000003f0: 75b7 85bd b100 dfbc 5f2a e73a 5b7a fabc
-0.05797465 -0.04614694 0.07018631 0.047341276 -0.029497957 -0.09919234 -0.052497897 -0.058179326
-0.07547411 -0.08786755 0.015478188 -0.0014872396 0.0737459 0.013854423 -0.06510115 -0.06861422
0.080572106 0.087963305 0.023661451 0.0073489635 0.079931095 -0.02873204 -0.080727406 -0.024210973
-0.17093667 -0.07224037 -0.025094196 -0.0054843584 -0.016023336 -0.03202016 0.037582133 0.042482007
-0.0117831305 0.0482242 -0.05193985 0.025209302 0.013712503 -0.023420792 -0.07176816 0.04006248
0.057021122 -0.05777185 0.07706797 -0.016024485 0.03005272 -0.025704462 0.05484222 0.028310712
-0.05454131 0.06322134 0.036043234 -0.023653107 -0.107157774 0.0376207 0.03992594 -0.09017625
0.05404393 -0.057784773 -0.03400244 0.048871484 -0.009715151 -0.03891301 -0.002325724 0.019860407
-0.13072607 0.051234536 -0.009613528 0.04370055 -0.14873554 -0.08806566 0.06971459 -0.068903
0.014946873 0.07693736 -0.072685726 0.00075721805 -0.08369746 0.021034949 -0.012276745 -0.06370662
-0.0991187 -0.07174938 -0.08737375 0.019684432 -0.021588475 0.009543704 -0.09775381 0.00964036
-0.091277435 -0.07596355 -0.09884577 -0.07299311 -0.03639658 -0.04999171 -0.041736867 -0.007447674
-0.06426169 -0.031798434 -0.049250342 0.08272979 0.057933398 -0.025422094 -0.08315207 -0.10735852
0.07185946 -0.0036874246 -0.014321114 -0.030608421 -0.08388184 0.015098276 -0.045403473 -0.030107144
-0.059536446 -0.047630496 -0.060168758 -0.037448592 -0.022337282 0.05177298 0.10213609 0.058110543
-0.017470215 -0.028774317 0.0017489675 -0.03821522 -0.062239125 -0.06460254 -0.047956042 -0.010602735
-0.060875464 0.36307436 0.042644482 -0.06789531 -0.035741884 0.04149646 -0.1430586 -0.017163534
-0.0677984 0.056164052 0.07436218 -0.07863416 0.0066876183 0.047757547 -0.06100172 0.009057667
0.05220846 -0.04304134 0.04757595 0.14717996 -0.0521066 -0.036109064 -0.020514715 -0.028403435
-0.06115152 -0.016001996 0.066178314 -0.09249575 -0.07292841 -0.018667774 0.012571855 -0.0036998657
0.036679734 0.07083476 -0.08095935 0.016726524 0.03393954 -0.04727207 0.006596833 -0.06991869
-0.1191993 -0.06297711 0.052231796 -0.036950238 0.09076876 0.059987757 0.021492237 -0.07882076
-0.038964987 -0.08935277 0.006061156 -0.014704141 -0.033332497 0.079085365 0.004679101 0.039149214
-0.017750835 0.03502021 0.031200226 -0.08933364 -0.085834995 0.029462414 -0.079874836 0.038055442
-0.1070465 0.068299316 0.020665461 -0.08990107 -0.12404145 -0.06893452 0.037775047 0.07459652
-0.005076973 -0.0607045 0.018828556 -0.012604905 -0.011977754 0.07824079 0.050025035 0.0008406874
0.0016364281 -0.044102933 0.039386425 -0.024505712 -0.031520326 -0.01996413 0.08408455 -0.05727351
-0.049909934 -0.05034859 -0.004762518 -0.07053429 -0.011878438 0.012855564 0.042173296 -0.059521973
0.072070055 0.017431328 -0.15982251 0.002940849 -0.05822576 -0.01619605 -0.014715076 0.02274855
0.01493461 0.07594153 0.032420572 -0.0043937387 0.010743546 -0.02008782 0.009814831 0.032346416
0.04165452 0.023482122 -0.08913185 -0.115217604 0.00558076 0.07686429 -0.15153684 -0.15088204
-0.1183955 -0.039854527 0.014386491 -0.016942699 -0.06529132 -0.02722201 0.0017636529 -0.030575922

bias f4 [128]
00000000: 0c8f 6cbc 3aae 38bc 9512 47bc da1a bebd
00000010: 5203 53bd 166c d4ba c407 cabd acbd b0bd
00000020: 23c2 0cbd 254a d3bd ae9b afbd 3ca4 02be
00000030: 9051 52bd f8be e2bd e6cd 783c 6d63 6f3d
00000040: e12d 8e3c cd34 3eb9 87b2 863d a596 afbd
00000050: cf9a cfbc 3e9e e8bb fdeb 50bd 39b0 abbd
00000060: 62d8 37bd 6931 7bbd 7b99 97bd 4cc1 27bd
00000070: 5847 30bd 11f5 26bd 4059 9abd 51b6 7abc
00000080: 077f 5fbb bbd3 1ebd db0e 803d 8c29 1cbd
00000090: 9903 11bd 5926 5cbd 5f48 6abd ca74 5fbd
000000a0: b381 8fbd d9b0 41bd 14bf b5bc c390 35bd
000000b0: 7d05 923c 3049 babd fafd b9bd 7e43 8bbc
000000c0: 5022 64bd b4c0 18bd dd9f 6ebd 2647 b6bd
000000d0: 4f2a a5bd ab6b c73b 3df6 7ebd d9da 99bc
000000e0: bfca aabd 4a25 66bd 8e19 97bd a78f 95bc
000000f0: 6124 a6bd 67db ef39 9bdd 3abd 588c 903d
00000100: 5550 42bd 1266 c4bd eed0 93bd 8f48 debd
00000110: 8ea0 8abd 753d 8abd 1206 80bd a58c 3b3c
00000120: 0502 50bd 328e 14bd c2e3 8cbb ebc5 25bd
00000130: f5e6 b2bc 685c dabc 0034 dfbc 8301 61bd
00000140: 2461 1abe 0682 babd 0868 84bd 480b 64bd
00000150: 3cab 47bd 919f bcbd e2a9 a0bd 0ca1 50ba
00000160: e32e d0bd fa41 b5bd 1c54 c13d f207 8bbd
00000170: c2fd 63bd 0b0d 27bd 59ca acbd 884b d3bc
00000180: bb57 243d 1267 48bd 551c 2e3d a3c4 5dbd
00000190: 232b 0c3d 9e5b 5abd 2fa4 8dbd f6d6 483c
000001a0: 6f73 8f3c 82dc 27bd 4edf 233d 7ab0 4abd
000001b0: de61 b2bd 464f 8b3d 41a4 55bd 306b 44bc
000001c0: d891 4dbd f022 c5bd bf50 8fbd 472a aebc
000001d0: 5d35 70bd 6d62 c33d 9bd0 bdbd bae7 183d
000001e0: b83d e0bd 3d97 3d3c c39a 23bd 8eb9 90bd
000001f0: f944 e6bc 0cb7 68bc a5a4 bcbd 5e39 ccbc
-0.014438402 -0.011272008 -0.012150426 -0.09282465 -0.05151684 -0.0016206529 -0.098647624 -0.08629927
-0.03436483 -0.10316876 -0.085746154 -0.12757963 -0.051347315 -0.11071581 0.015185809 0.05844443
0.017355861 -0.00018139482 0.0657702 -0.08573655 -0.025342373 -0.007098942 -0.051006306 -0.08383221
-0.044884093 -0.061326418 -0.07402321 -0.040955827 -0.04303679 -0.040761057 -0.07536554 -0.015302257
-0.0034102814 -0.03877614 0.062528335 -0.03812556 -0.03540382 -0.05374751 -0.057197925 -0.054554738
-0.0700716 -0.047287796 -0.02218584 -0.04432751 0.017824883 -0.09095991 -0.09081645 -0.016999956
-0.055696785 -0.03729315 -0.058257926 -0.08900289 -0.0806471 0.006085833 -0.06224655 -0.018781113
-0.08339452 -0.056187905 -0.07377921 -0.018256975 -0.081124075 0.000457491 -0.045621496 0.070580184
-0.04743989 -0.09589781 -0.072175846 -0.10853683 -0.067689046 -0.06750003 -0.06251158 0.0114471065
-0.050783176 -0.03626842 -0.004299612 -0.040471952 -0.021838645 -0.02665539 -0.027246475 -0.054933082
-0.15076119 -0.09106831 -0.06465155 -0.05567482 -0.048747286 -0.092101224 -0.078449026 -0.0007958568
-0.10165193 -0.08850475 0.09439871 -0.06788625 -0.055661924 -0.040783923 -0.08437032 -0.025792852
0.04012273 -0.04892642 0.04250749 -0.054142606 0.034220826 -0.05331003 -0.06916081 0.012258282
0.017511098 -0.040981777 0.04000788 -0.049484707 -0.08710073 0.068022296 -0.052158598 -0.011988446
-0.050187916 -0.096258044 -0.06997823 -0.021260394 -0.05864464 0.095402576 -0.09268304 0.037330367
-0.10949272 0.011571703 -0.039942514 -0.07066642 -0.02810906 -0.014203798 -0.09211091 -0.024929699

weight f4 [2, 128]
00000000: 07f4 ef3c eaee 853e 10ed e7bb 3298 4dbd
00000010: b4bf a5bc 3c4b babc 99de 9fbd 970e 863b
00000020: 83dd e0ba 8619 8abe 2e22 a83c c20d 453f
00000030: f056 68bb 2e96 723e 7916 d03c 8561 41bd
00000040: 7f14 823c 71d1 2c3c a85c 143e 69c6 b5bc
00000050: 39ba 05bd dd25 09bc 9c50 8d3c b581 c03c
00000060: 6132 9a3b 30d9 933c 5c36 9b3b 9178 913c
00000070: c78c 693e 76f9 0c3e 2115 b8bd 2e21 543d
00000080: 5a67 a8ba 62cf 013f 4b81 363e 6d1d 5e3c
00000090: 3d37 433c da1e 4e3a f040 393c 4440 0bba
000000a0: 8f52 653c 1bf1 2bbd 3c58 bc3d dc9c aa3b
000000b0: bd44 47be a0cd c53e b047 48bd 9e86 363d
000000c0: 2fac 49bb 7e40 53bd a068 53bc ee3f f83e
000000d0: 9944 793c 145d 9cbc 886c 6d3d 5fa7 83bc
000000e0: 2259 15bd d2b7 02bd 6db1 e63c d561 993d
000000f0: 048d 69bc 7ec1 983d 1439 90bd c1cb 443e
00000100: cf7d 463d ea51 ddbb 4337 bb3c 1779 aabc
00000110: 4d29 453d 8adb e73c 8db2 ddbc e086 ae3d
00000120: d9e0 6b3e 0950 dfbc e2f2 443c f9ea 1d3e
00000130: de03 0ebb fcdd 463c 85af f2bc 45af d4bc
00000140: c9e1 cdbc 37b6 47bd f824 04bd 8a08 56bd
00000150: 2ab5 f23d 640a cf3e 0af7 f73d 6459 a83b
00000160: d89a 06bd e347 703c b54c a5bd c0d7 533c
00000170: 8245 d33d 3f7e bbbc 9071 52bc 72ea 723c
00000180: b19b a1bd bdc0 123f fb96 1f3e caaf ea3c
00000190: 7dcf 0f3e 6fb8 e73c bbdf 333d c6df 65bd
000001a0: 989a c4bc 6ae5 853c d7e6 373f 28ec ffbc
000001b0: 32d5 0b3f 6b76 d9bd 203d 62bd 086a b73b
000001c0: adcc 25be 7275 413c 403c 583c 8cd8 303e
000001d0: eeb3 113f 48f3 3f3e 1ef8 163f cd0a 5f3d
000001e0: 108e 67bc 3461 debc 983c ca3d ae6c 103d
000001f0: dd79 2e3c 36f4 e8bc 71b3 17bb cdae 123c
00000200: 7c3b 9c3c 6b64 f5bb 5f9d 913d 0494 123d
00000210: 106c 81bc ecdb 413d 13cd 833b e4c5 89bd
00000220: f323 cebc 4805 a6bd 19e9 f13c 3aaf ca3c
00000230: d2da 8abc 04fa 33bc 38c3 2d3b b2ae bebc
00000240: 14f2 8f3d 7e0b 3b3c f87d 30bc 307c 0b3d
00000250: 7e88 6dbd dcc8 933d f4f5 f4ba afa0 543c
00000260: 1473 4fbd fe2d 08bd abb0 a4bd 59f4 63bd
00000270: a1b5 f639 3cb0 19bb 2d52 f7bc 59b1 76bc
00000280: 7615 3b3c 3570 15bd 2951 eebb a620 1b3d
00000290: f8dd 603c 6149 4c3b 50f6 55bc cac7 75bd
000002a0: 0e78 fbbc e89f 803c d432 95bc ab10 303d
000002b0: f129 0b3d faa2 c6b9 7eb1 9dbc 6054 60bc
000002c0: 734b 123d 1ee4 a83c 48ab 463b c7ca a7ba
000002d0: 1783 943d beab 7bbd 3b47 a93d 2b05 be3b
000002e0: a105 ef3b fd9a 563d aa53 b03b de59 1abd
000002f0: 7400 0a3d 33fc 263c d374 0f3d 2335 20bd
00000300: 0020 a13a 1c1b 4a3d ca17 d9bc e52e f73c
00000310: 256e b03b b890 39ba d312 323d 1894 8dbd
00000320: ab3f af3b 6a0e 3e3d 3aae 113e ade9 aebc
00000330: a2c1 45bc f691 3b3c 448c 1d3c f018 a03d
00000340: 94ab f7ba ecc3 113c 0ea6 c4bc a72e f33a
00000350: 3a4f 03bd 02f9 2a3b f77e 12ba 1f16 693b
00000360: 983a 973c f4c2 f438 0cae 11bd 3507 61bd
00000370: 9c3d 593c 82b7 c4bd b84a c03b 69db 52bd
00000380: df69 ba3d 45c8 bfbc 5180 23bb 6e61 823c
00000390: e038 9cbc 857c 833c ea95 343c bfc1 253d
000003a0: c604 29be 652e 263c 673a a13c 638c 01bd
000003b0: b392 9a3b 04e5 cebd 7d6a 30bd 5ad4 a13c
000003c0: a298 9c3c a7b6 f3bc 06a3 89bb 9bb8 483b
000003d0: 92db 34bc e417 9cbc 2c9d 343b 0eed 0bbc
000003e0: 72de 48bd 3643 fc3c 3335 cb3a 9190 053a
000003f0: 1079 c8bc 80b9 343c 5568 a1bd 9dea 9fbc
0.029291166 0.2615884 -0.0070778206 -0.050193973 -0.020233013 -0.022740953 -0.07806129 0.0040910947
-0.0017155859 -0.26972598 0.02052411 0.7697412 -0.003545221 0.23690102 0.02540134 -0.047212142
0.015878914 0.010547982 0.1448847 -0.022189336 -0.0326483 -0.008370844 0.017250352 0.02349935
0.0047057127 0.018047899 0.0047367048 0.017757686 0.22807609 0.13767037 -0.08988405 0.051789455
-0.0012848184 0.50707066 0.17822759 0.01355682 0.011915025 0.00078628736 0.011306986 -0.00053120055
0.013996734 -0.041977983 0.09196517 0.0052066874 -0.19459815 0.38633442 -0.04889649 0.044561975
-0.0030772795 -0.051575176 -0.0129033625 0.48486274 0.015214109 -0.019087352 0.05796483 -0.01607102
-0.036461957 -0.031913586 0.028160775 0.07489363 -0.014254812 0.07458781 -0.07042137 0.19218351
0.048459824 -0.0067541497 0.0228535 -0.020809693 0.04813509 0.028302927 -0.027062679 0.08521819
0.23034991 -0.027259843 0.012020798 0.15421666 -0.0021669785 0.012137886 -0.02962471 -0.025962481
-0.025132077 -0.048757758 -0.03226182 -0.052254237 0.118509606 0.40437615 0.12107666 0.0051376093
-0.032862514 0.014665577 -0.08071271 0.012929857 0.10315992 -0.022887347 -0.012844458 0.014826404
-0.07891024 0.57325345 0.15584938 0.028648276 0.14043994 0.028286187 0.043914538 -0.05612161
-0.023999497 0.016344745 0.7183661 -0.031240538 0.54622185 -0.106182896 -0.055234075 0.0055973567
-0.16191359 0.011807786 0.0131979585 0.17270106 0.56915176 0.18745148 0.58972347 0.05445366
-0.014132991 -0.02714596 0.098748386 0.035259895 0.010649172 -0.028436761 -0.0023147727 0.008952809
0.019071333 -0.0074887774 0.07110094 0.03578569 -0.015798599 0.047328874 0.0040222495 -0.06727198
-0.025163626 -0.08106476 0.029530095 0.024741758 -0.016950045 -0.010984901 0.0026514065 -0.02327666
0.070285946 0.011416314 -0.010772221 0.03405398 -0.057991497 0.07216045 -0.0018689022 0.012977763
-0.050646856 -0.033246987 -0.08041509 -0.05565295 0.000470561 -0.002345099 -0.030190552 -0.015056931
0.011418691 -0.036483962 -0.0072728586 0.037872933 0.0137247965 0.0031171667 -0.013059214 -0.060004987
-0.030696895 0.01570125 -0.018212713 0.042984646 0.033975545 -0.0003788693 -0.019249674 -0.013691992
0.035716485 0.020616587 0.0030314494 -0.0012801521 0.07251566 -0.061443083 0.08265539 0.005798956
0.007294372 0.052393902 0.0053810673 -0.03768336 0.03369184 0.010191965 0.03502352 -0.039113175
0.0012292862 0.04934226 -0.026500601 0.030173728 0.005384224 -0.0007078755 0.043474983 -0.06913012
0.005348166 0.046400465 0.14226618 -0.02135166 -0.012070091 0.011448374 0.009615961 0.078172565
-0.0018895739 0.008896809 -0.024004962 0.0018553332 -0.03205798 0.0026088362 -0.0005588377 0.0035566164
0.018460557 0.000116711395 -0.035566375 -0.054938514 0.013259318 -0.09605314 0.005868282 -0.051478777
0.091022246 -0.023410926 -0.0024948309 0.015915599 -0.019070089 0.016050586 0.01102207 0.040467974
-0.16505727 0.010142897 0.019681169 -0.031628024 0.004717195 -0.10102275 -0.043070305 0.019754577
0.01911575 -0.029750181 -0.004200342 0.0030627612 -0.011038678 -0.01905436 0.0027559502 -0.008540405
-0.049040265 0.030793767 0.0015503526 0.00050950894 -0.02447179 0.011030555 -0.07881228 -0.019521052

bias f4 [2]
00000000: 5314 1a3d 9999 703c
0.03761704 0.014685058
